models/discharge/Hasil eksperimen Sukabumi ML 1 forecast 16 best.pth (torch, 350458 bytes, 20 tensors)

input_layer.weight f4 [128, 72]
0	0x3c002cc0	0.007823169
1	0xbd45b47f	-0.048267838
2	0x3d22dce9	0.039761458
3	0xbeec2147	-0.4611914
4	0xbf123629	-0.5711389
5	0x3db7c674	0.08973399
6	0x3e18d61f	0.1492543
7	0xbe16063b	-0.14650814
8	0xbe63b836	-0.2223824
9	0xbf5018bc	-0.8128774
10	0xbfa58cbb	-1.2933573
11	0xbf608fa9	-0.8771921
12	0xbf4ed230	-0.8078947
13	0xbed8197b	-0.4220694
14	0xbdb056cd	-0.08610306
15	0xbdf47a90	-0.119374394
16	0x3e77e0ae	0.24206802
17	0x3e8a086b	0.26959547
18	0x3d2749a8	0.04084173
19	0x3e386f80	0.18011284
20	0x3eadfc93	0.3398176
21	0xbe7ae75d	-0.2450232
22	0xbf6f2a5c	-0.9342401
23	0xbfb89c90	-1.4422779
24	0xbf56edbc	-0.83956504
25	0xbeb7b324	-0.3587886
26	0xbf512f1c	-0.8171251
27	0xbe3518f2	-0.17685297
28	0x3e104df7	0.14092241
29	0x3e3fc185	0.18726166
30	0xbdccff7e	-0.10009669
31	0xbe3ce890	-0.1844809
32	0x3e037559	0.12837733
33	0xbd9bc367	-0.076056294
34	0xbe0f28ed	-0.13980456
35	0x3e66d92e	0.22543785
36	0x3f1073d4	0.5642674
37	0xbf01d4c3	-0.50715274
38	0xbf90eba1	-1.1321908
39	0xbf2c5d8a	-0.6733023
40	0xbe8be5a8	-0.2732365
41	0x3ec88794	0.39165938
42	0x3db8c4d5	0.09021918
43	0x3ce78531	0.028261753
44	0x3d2798b0	0.0409171
45	0xbe9528a9	-0.29132584
46	0xbf182f71	-0.5944739
47	0xbf294f31	-0.6613646
48	0xbee3c2f2	-0.4448467
49	0x3f31b1b2	0.69411767
50	0xbe941d35	-0.28928533
51	0xbef9e36a	-0.48806316
52	0x3d845abf	0.06462621
53	0xbf6322af	-0.887248
54	0xbe941ef3	-0.28929862
55	0x3e346557	0.17616783
56	0x3e170583	0.14748196
57	0xbfa9aea3	-1.325642
58	0xc035008e	-2.8281589
59	0xc0020626	-2.0316253
60	0xc00044d9	-2.0042021
61	0xbfc154bd	-1.5103985
62	0xbe8a6449	-0.27029637
63	0x3e33f72f	0.17574762
64	0x3ce7aa9a	0.028279591
65	0x3d13ce0b	0.03608517
66	0x3e89b55c	0.2689618
67	0xbf12dfda	-0.5737282
68	0xbeda4fd8	-0.4263904
69	0xbee9c08d	-0.45654717
70	0xbef46d5b	-0.47739682
71	0x3e7715d7	0.24129425
72	0x3eafac94	0.34311354
73	0x3eaa45e2	0.3325644
74	0xbe2c3ea5	-0.16820772
75	0xbeb6980b	-0.35662875
76	0xbef396f5	-0.4757611
77	0x3e036343	0.12830834
78	0xbf5d05c6	-0.86336935
79	0xbfafb441	-1.3726884
80	0xbf7141cc	-0.94241023
81	0xbe8140cd	-0.25244752
82	0xbe9b8e8d	-0.30382195
83	0xbe12b2ef	-0.1432607
84	0xbd02d100	-0.0319376
85	0xbe53a44c	-0.20668143
86	0xbf082683	-0.53183764
87	0xbe7212c2	-0.23639968
88	0xbcb8dd93	-0.022566592
89	0xbe115ca1	-0.14195491
90	0xbc9cfc61	-0.019163312
91	0x3ed54335	0.41652837
92	0x3e9844fd	0.29740134
93	0x3e00e6fb	0.12588112
94	0x3d5eca3f	0.054392096
95	0xbdf14f41	-0.117826946
96	0xbdc354ff	-0.09537696
97	0xbf695098	-0.911386
98	0xbf44c646	-0.7686504
99	0xbeb39eeb	-0.35082182
100	0xbec521c2	-0.38502318
101	0xbfca20b6	-1.5791233
102	0xbf3a5a75	-0.72794276
103	0x3e40bda4	0.18822342
104	0xbf11dacc	-0.5697448
105	0xbecef6f6	-0.4042279
106	0xbdc08d8a	-0.094019964
107	0x3e2785f9	0.163597
108	0xbdec4c85	-0.115380324
109	0xbd797841	-0.0609057
110	0x3c031752	0.008001165
111	0x3e10a568	0.14125597
112	0x3e6923a9	0.2276751
113	0x3d8468de	0.06465314
114	0xbd507bf0	-0.050899446
115	0x3c04158d	0.008061779
116	0xbdaee606	-0.08539967
117	0xbec7b3f4	-0.3900448
118	0xbf187b55	-0.5956319
119	0xbf5f7794	-0.87291837
120	0xbfa224a2	-1.266743
121	0xbe12352b	-0.14278094
122	0x3e0d7429	0.13813843
123	0xbf1d18c0	-0.6136589
124	0xbea54832	-0.32281643
125	0xbe6e945d	-0.23298784
126	0x3e2a02df	0.16602658
127	0xbd8d11c3	-0.068881534
128	0xbd9bbc2a	-0.07604249
129	0x3e19850f	0.14992164
130	0x3e4a333b	0.19746105
131	0x3dc2388f	0.09483444
132	0xbe849dbc	-0.25901592
133	0xbd9cfe9b	-0.0766575
134	0xbd7ff45e	-0.062488906
135	0xbc07ae5d	-0.008281318
136	0x3dd67ebc	0.104733914
137	0xbbe2faa8	-0.006926853
138	0xbe10ab2f	-0.14127801
139	0x3e04ef83	0.12981991
140	0x3d8a0152	0.06738533
141	0x3e2babb6	0.16764721
142	0xbe0a4728	-0.13503706
143	0xbde06fa8	-0.10958797
144	0x3ed37d92	0.4130674
145	0x3dd09f42	0.10186626
146	0x3dddccf6	0.10830109
147	0x3e5422c8	0.20716393
148	0x3dffd92d	0.12492595
149	0x3e1c5bac	0.15269345
150	0x3e1c19bd	0.15244193
151	0x3dbd8a5c	0.092549056
152	0x3e1966b4	0.14980584
153	0x3db7c7ae	0.08973633
154	0x3dd570ea	0.10421927
155	0x3da642b5	0.08118192
156	0x3daab784	0.08335784
157	0x3ceaabcd	0.028646374
158	0x3c8e85f0	0.01739785
159	0xbc947d69	-0.018126206
160	0x3bf3a894	0.0074358676
161	0xbcb51a0e	-0.02210715
162	0x3d406351	0.046969716
163	0xbc28fd57	-0.010314307
164	0xbc961819	-0.018322038
165	0xbda64f77	-0.081206255
166	0xbdb90dd5	-0.090358414
167	0xbc8d53d2	-0.017251883
168	0xbe04e948	-0.12979615
169	0xbdd9d079	-0.10635466
170	0xbd7728d8	-0.060341686
171	0xbdbb6d0e	-0.0915166
172	0xbde25485	-0.11051277
173	0xbd3dc938	-0.046334475
174	0xbdd8b1a2	-0.10580756
175	0xbd6cdc42	-0.05782724
176	0x3cf6e248	0.030137196
177	0x3c0ba620	0.008523494
178	0x3c79b9e0	0.01524207
179	0xbc74af53	-0.014934379
180	0x3ddc6349	0.10761125
181	0x3dc6a75d	0.09699891
182	0x3d8b4b54	0.06801477
183	0x3dc1681f	0.09443688
184	0x3e16af86	0.14715394
185	0x3e5147c1	0.20437528
186	0x3e5d8cb6	0.21635708
187	0x3e863560	0.26212597
188	0x3e38abdc	0.18034309
189	0x3e852d7d	0.26011267
190	0x3e6d2b78	0.23161113
191	0x3e7fc7b3	0.24978523
192	0x3e55df4f	0.20885967
193	0x3e6903d0	0.2275536
194	0x3e45254a	0.19252506
195	0x3de8b052	0.113617554
196	0x3e54b57a	0.20772353
197	0x3de7b1e5	0.113132276
198	0x3e2dbb55	0.16965993
199	0x3e012ce5	0.12614782
200	0x3d5a022d	0.05322473
201	0x3dd4807b	0.10376068
202	0x3d566d9e	0.052350633
203	0x3c9df5e2	0.019282285
204	0x3c867047	0.01641096
205	0xbd38eb74	-0.04514642
206	0xbcc6fb85	-0.024289856
207	0x3d4761dc	0.04867731
208	0xbd869ead	-0.06573234
209	0xbc29ef98	-0.010372065
210	0xbd8e3818	-0.06944293
211	0xbde8034d	-0.113287546
212	0xbd88aa4e	-0.06673108
213	0xbc90584f	-0.017620234
214	0x3c998011	0.018737825
215	0xbe56093c	-0.2090196
216	0xbfbd6ff8	-1.4799795
217	0xbf767acc	-0.96281123
218	0xbf1310a8	-0.5744729
219	0xbf1ba857	-0.6080374
220	0xbea240e9	-0.31690148
221	0x3dbe56ff	0.09293937
222	0xbdbb5d34	-0.091486365
223	0xbdf09fe2	-0.11749245
224	0xbe9fd237	-0.3121507
225	0xbf2302c9	-0.63676125
226	0x3e05fb05	0.13084038
227	0x3e16fdb7	0.14745222
228	0x3bf5c545	0.007500323
229	0xbe00dc2b	-0.12583987
230	0xbcd00874	-0.025394656
231	0xbd076954	-0.033059433
232	0x3d8cf6ac	0.068829864
233	0x3d5379e4	0.051629916
234	0xbeee5a46	-0.46553248
235	0xbd879518	-0.06620234
236	0xbc0073bb	-0.007840092
237	0x3e387863	0.18014674
238	0x3e7ab8cc	0.24484557
239	0x3e54f0a4	0.20794922
240	0xbee3f728	-0.44524503
241	0xbe28c2ca	-0.16480556
242	0x3df4d0a9	0.11953861
243	0xbdafe187	-0.08587938
244	0xbe366222	-0.17810872
245	0x3e867a4a	0.26265174
246	0x3bf25410	0.007395275
247	0xbe5d5dd1	-0.2161782
248	0x3e287d63	0.16454081
249	0x3d04c981	0.03241873
250	0x3e3452b9	0.17609681
251	0xbd8d791f	-0.06907868
252	0xbf0618af	-0.52381414
253	0xbf3fec07	-0.74969524
254	0xbf1c7d6c	-0.6112888
255	0xbeca6a26	-0.3953411

input_layer.bias f4 [128]
0	0xbeebb626	-0.46037406
1	0x3f0beb09	0.5465551
2	0xbf90bb1b	-1.13071
3	0x3f362d1a	0.7116257
4	0xbf0868f9	-0.53285176
5	0x3eef3e25	0.467271
6	0xbecb8f80	-0.3975792
7	0xbf981568	-1.1881533
8	0xbf4ec23a	-0.80765116
9	0x3f60cfa0	0.8781681
10	0xbf236613	-0.6382763
11	0xbf3802c9	-0.7187925
12	0xbf9d4d3f	-1.2289199
13	0xbf31f947	-0.6952099
14	0x3ec9ae06	0.39390582
15	0xbf0ee1a7	-0.5581307
16	0xbf792169	-0.97316605
17	0x3f88b883	1.0681309
18	0xbf85553b	-1.0416635
19	0xbf3e2cbb	-0.74287003
20	0xbf82635c	-1.0186572
21	0x3e5f1fda	0.21789494
22	0xbf084638	-0.53232145
23	0x3ee4199a	0.44550782
24	0x3f445141	0.76686484
25	0xbfc6c537	-1.5528935
26	0xbf8e6c72	-1.1126845
27	0x3da33cd0	0.079705834
28	0xbf625bb1	-0.8842116
29	0xbe845533	-0.25846252
30	0x3f750bdc	0.9572122
31	0x3f1d21a8	0.6137948
32	0x3f08fd2c	0.5351131
33	0x3eae7913	0.34076747
34	0xbee5b743	-0.4486638
35	0xbf271519	-0.6526657
36	0xbf645581	-0.8919297
37	0xbf5a4a8c	-0.8527
38	0xbf01137b	-0.5042035
39	0xbf32cc7e	-0.6984328
40	0xbf04eebb	-0.51926774
41	0x3fd30218	1.6485014
42	0xbf0746c4	-0.52842355
43	0xbfb13106	-1.3843086
44	0x3e672481	0.22572519
45	0xbfaf365d	-1.3688465
46	0xc0100bb6	-2.2507148
47	0xbfc54079	-1.54103
48	0xbe83d304	-0.2574693
49	0x3e9b17e9	0.3029168
50	0xbeaf4c97	-0.3423812
51	0xbf233501	-0.6375275
52	0xbf309c99	-0.6898895
53	0xbf9e4dc4	-1.2367482
54	0x3e5b8a31	0.21439435
55	0x3eda54a1	0.42642692
56	0x3cb9f356	0.02269904
57	0x3da9e7f1	0.082961924
58	0x3f67d343	0.90556735
59	0xbf665fb2	-0.8998977
60	0xbfbf1ec2	-1.4931262
61	0xbf29cb91	-0.6632624
62	0x3f1da3d9	0.61578137
63	0xbf21a9a2	-0.63149464
64	0xbf79f884	-0.9764483
65	0x3f42326d	0.75858194
66	0xbf2cd294	-0.67508817
67	0x3f89dfbf	1.0771407
68	0xbf14231a	-0.5786606
69	0xbec2a89c	-0.38019264
70	0xbe9f4659	-0.31108359
71	0x3f4bb149	0.7956739
72	0xbfaf92d3	-1.3716682
73	0xbd8337a5	-0.06407098
74	0xbfbea3c1	-1.4893724
75	0x3e28c39f	0.16480874
76	0x3e2404ec	0.16017503
77	0xbf8ffd79	-1.1249229
78	0xbeac2f76	-0.3362996
79	0xbdb95aa6	-0.09050493
80	0x3e8296f0	0.2550578
81	0xbf2badee	-0.6706227
82	0x3ebb0b61	0.3653212
83	0xbe35b448	-0.17744553
84	0xbf12d030	-0.5734892
85	0xbf322032	-0.69580376
86	0xbee6d614	-0.45085204
87	0xbf6bdf9d	-0.9213808
88	0xbce860fb	-0.028366556
89	0x3f5c3694	0.8602078
90	0xbe5d04df	-0.2158389
91	0x3ee8e990	0.45490694
92	0xbe42d024	-0.19024712
93	0xbf2e5c51	-0.68109614
94	0xbf1e508c	-0.61841655
95	0xbfb0cde7	-1.3812836
96	0x3e3f960c	0.18709582
97	0x3f76987c	0.9632642
98	0xbfc0c382	-1.5059664
99	0xbe42b292	-0.19013432
100	0x3fa31c57	1.2743024
101	0x3f09a3d7	0.53765625
102	0xbf872dbe	-1.0560834
103	0x3f62473a	0.88389933
104	0xbef9fc2c	-0.48825204
105	0xbef7ff92	-0.48437172
106	0xbeac9a84	-0.33711636
107	0xbf396565	-0.7242034
108	0x3d9a1097	0.075226955
109	0xbf8d1678	-1.1022482
110	0x3f1bfa38	0.6092868
111	0x3cfca484	0.030840166
112	0x3f435d28	0.7631402
113	0x3f1cb72e	0.6121701
114	0xbf340b32	-0.7032958
115	0xbf775fcb	-0.96630543
116	0xbefb4667	-0.4907715
117	0xbe9bf336	-0.30458993
118	0xbf5afaef	-0.85539144
119	0x3ec45ccf	0.38352057
120	0x3ec6ab91	0.3880277
121	0x3f5fe486	0.87458074
122	0xbf2379f2	-0.6385795
123	0x3edce1a6	0.43140906
124	0xbfacab34	-1.3489747
125	0x3dc8bbfd	0.09801481
126	0x3d40fbd5	0.047115166
127	0xbfafd7a5	-1.3737684

hidden_layers.0.weight f4 [128, 128]
0	0x3e4dd896	0.20102152
1	0xbd74c2b8	-0.05975601
2	0xbd047e16	-0.032346807
3	0xbe433bdc	-0.19065803
4	0xbda69007	-0.0813294
5	0x3f08cc2e	0.53436553
6	0xbeb6137d	-0.35561743
7	0xbde3c5a1	-0.11121679
8	0xbe851052	-0.25989014
9	0x3d5e0a82	0.05420924
10	0x3e921576	0.28531998
11	0xbdcef151	-0.10104621
12	0xbe29531b	-0.16535608
13	0x3e370e1a	0.17876473
14	0x3c204906	0.009783035
15	0xbf375ff0	-0.71630764
16	0x3e0c07fe	0.13674924
17	0xbe67e9ec	-0.22647828
18	0xbf021567	-0.5081391
19	0x3f32ccce	0.6984376
20	0x3eeb0465	0.4590179
21	0xbea6b4a4	-0.32559693
22	0x3e5ee4bf	0.21766947
23	0x3e810038	0.2519548
24	0xbe859da7	-0.26096842
25	0xbebb44b0	-0.36575842
26	0xbe40c0c0	-0.18823528
27	0xbf0fd3ff	-0.56182855
28	0xbe49ad98	-0.19695127
29	0xbe6fda7f	-0.23423193
30	0xbf40cc19	-0.7531143
31	0x3dceeea8	0.10104114
32	0xbe2cd28e	-0.16877195
33	0xbd648d52	-0.055798836
34	0xbe3cac84	-0.18425184
35	0x3caedef1	0.021346541
36	0xbe26e23a	-0.16297236
37	0xbe5740cf	-0.21020816
38	0xbe15aa7a	-0.14615813
39	0x3e6409b6	0.2226933
40	0xbd8b51e5	-0.068027295
41	0xbf46b037	-0.7761263
42	0xbf0ac779	-0.5421062
43	0xbec43b4d	-0.38326493
44	0x3e80f2c8	0.25185227
45	0xbcd331ca	-0.025780577
46	0x3e92db00	0.2868271
47	0xbe6579f4	-0.22409803
48	0xbe439027	-0.19097959
49	0x3ea9c985	0.3316156
50	0x3d8689a8	0.065692246
51	0x3d85ea4f	0.065388314
52	0x3aded5ed	0.0017001011
53	0x3e3485a7	0.1762911
54	0x3ddc5bae	0.10759674
55	0x3f216733	0.63048095
56	0xbf24eb85	-0.64421874
57	0x3d28e244	0.04123141
58	0xbe056cf3	-0.13029842
59	0x3eda2030	0.42602682
60	0xbf0f9d1b	-0.560991
61	0xbf04a1b2	-0.5180923
62	0xbd515be2	-0.051113017
63	0x3f1aa8f5	0.6041406
64	0xbf0b4c7a	-0.5441357
65	0x3e15b932	0.14621428
66	0x3e05ffd3	0.1308587
67	0xbd3ace5f	-0.045606967
68	0x3e32fa26	0.17478237
69	0xbe622c02	-0.220871
70	0x3e37072c	0.1787383
71	0x3e3ad489	0.18245138
72	0xbd13f978	-0.036126584
73	0xbeb3cb64	-0.35116112
74	0xbe00aaca	-0.12565151
75	0xbc2c4db9	-0.010516577
76	0xbe90d945	-0.28290763
77	0xbd38c335	-0.04510804
78	0xbe4d9966	-0.20078048
79	0x3ef79f0a	0.48363525
80	0xbf0a00ca	-0.53907454
81	0xbf2cd82d	-0.6751736
82	0x3e0fc84c	0.14041251
83	0xbeb49ee5	-0.35277477
84	0x3e125450	0.14289975
85	0xbe93bcae	-0.2885489
86	0xbe1b4dc6	-0.15166387
87	0x3e3141c9	0.17310251
88	0xbf1ca001	-0.61181647
89	0xbf42b522	-0.76057637
90	0xbab5dca5	-0.0013874961
91	0xbdc4ba2b	-0.09605821
92	0xbe453d2a	-0.19261613
93	0xbe47ae9b	-0.195002
94	0xbda29dd5	-0.0794026
95	0xbe6fb55b	-0.23409025
96	0xbe60a0a6	-0.21936283
97	0x3f1cefe4	0.61303544
98	0xbe950265	-0.2910339
99	0xbee5eaa7	-0.44905588
100	0x3ea4725e	0.32118505
101	0x3ef9ef34	0.4881531
102	0xbf16a683	-0.58847827
103	0x3d8cba15	0.0687143
104	0x3c1fd493	0.0097552715
105	0x3da7b50d	0.081888296
106	0xbc4bfa37	-0.012449793
107	0xbec0f13a	-0.3768404
108	0xbe8e614e	-0.27808613
109	0x3c2c2cf7	0.010508767
110	0xbf07fef2	-0.5312339
111	0x3f3d4501	0.73933417
112	0xbf4924cd	-0.7857178
113	0x3f999fce	1.2001894
114	0xbeef2c29	-0.4671338
115	0xbee51936	-0.44745797
116	0x3f2172e3	0.6306593
117	0xbe9151fd	-0.28382865
118	0x3f912b12	1.1341269
119	0xbe375b4f	-0.17905925
120	0xbf0db5f5	-0.5535577
121	0xbe83001f	-0.2558603
122	0xbe892674	-0.2678715
123	0x3f115c84	0.5678179
124	0xbebad6cb	-0.36492
125	0x3da11a11	0.078663
126	0x3e8a5ea2	0.27025324
127	0xbebc2dca	-0.36753684
128	0xbe34298e	-0.17593977
129	0x3d61032c	0.054934666
130	0xbca9ed62	-0.020743076
131	0xbd632c7f	-0.055462357
132	0xbe3cece9	-0.18449749
133	0xbd1a6733	-0.037696075
134	0xbdfd1b48	-0.12358719
135	0xbdfe75ea	-0.12424834
136	0xbcdca79f	-0.026935397
137	0x3efd7077	0.49499866
138	0xbedf486e	-0.43609947
139	0xbe5375ce	-0.20650408
140	0xbdcf3e82	-0.10119344
141	0xbe7845e9	-0.24245419
142	0x3f04e9a2	0.51918995
143	0xbe0bd6b2	-0.13656119
144	0x3e0c3d43	0.13695244
145	0x3d6bcc90	0.057568133
146	0xbe98d8dc	-0.2985295
147	0xbf05e5f2	-0.52303994
148	0xbed5391e	-0.4164514
149	0x3ee58ab2	0.4483238
150	0x3df98192	0.12182917
151	0xbe9d73c4	-0.30752385
152	0xbe1734ed	-0.14766283
153	0x3cf01cb5	0.029310564
154	0xbddb7a84	-0.107167274
155	0xbdbde03d	-0.09271286
156	0xbe0a29f3	-0.13492565
157	0x3e9f1b22	0.31075388
158	0xbec11c72	-0.37717015
159	0x3ef5db35	0.48018804
160	0x3db52e73	0.0884675
161	0x3ea09b7f	0.31368634
162	0x3eaf47a0	0.34234333
163	0xbe527768	-0.20553362
164	0x3eeb5c59	0.45968893
165	0xbeaa186f	-0.33221766
166	0xbe2661eb	-0.1624829
167	0xbdca927b	-0.0989122
168	0xbebcb805	-0.36859146
169	0xbc03c954	-0.008043606
170	0xbf014b5c	-0.50505614
171	0xbd934e81	-0.07192708
172	0xbd411da0	-0.047147393
173	0xbe879f5e	-0.26488775
174	0x3dbb2880	0.09138584
175	0xbf351cbc	-0.7074697
176	0x3f43cafa	0.7648159
177	0x3f93c156	1.1543376
178	0xbf25d99e	-0.6478518
179	0xbf8ad5c9	-1.0846492
180	0xbe67241e	-0.22572371
181	0xbcb80341	-0.02246249
182	0x3ddc72d8	0.10764092
183	0xbf12d438	-0.5735507
184	0x3f216aac	0.63053393
185	0x3eef8e15	0.46788087
186	0x3e31b60f	0.17354606
187	0xbf00b1a2	-0.50271046
188	0xbbc190ad	-0.0059071393
189	0x3f1d0998	0.61342764
190	0x3f32ab38	0.6979251
191	0x3e06ae9a	0.13152543
192	0xbdee8869	-0.11647112
193	0xbe4f48f6	-0.20242676
194	0xbda29c00	-0.07939911
195	0x3e7092c0	0.2349348
196	0x3e2566d5	0.16152509
197	0x3cc5c5db	0.024142196
198	0xbf13bd2d	-0.57710534
199	0x3f062a66	0.52408445
200	0xbe153951	-0.14572646
201	0x3f711601	0.941742
202	0xbe19260a	-0.14955917
203	0x3ed57298	0.4168899
204	0x3ee5f188	0.44910836
205	0xbeea9787	-0.4581873
206	0xbe30d482	-0.17268565
207	0xbf68e6c5	-0.90977126
208	0x3f8c3a2d	1.0955254
209	0x3df15c93	0.11785235
210	0x3ca146d2	0.01968709
211	0xbeeacb7b	-0.45858368
212	0xbf48efee	-0.78491104
213	0x3ea95c58	0.33078265
214	0xbe2bdf30	-0.16784358
215	0x3ea8621c	0.32887352
216	0x3e5eaf68	0.217466
217	0x3e8e648c	0.27811086
218	0x3d5f0f5c	0.054458007
219	0x3f077ed2	0.5292789
220	0xbe9c6d04	-0.30551922
221	0xbeb83e53	-0.3598505
222	0xbf150085	-0.5820392
223	0x3e5a3b1b	0.2131161
224	0x3df20f42	0.118193164
225	0xbf2b299d	-0.6686037
226	0xbe56e544	-0.20985895
227	0xbe835917	-0.25653908
228	0x3e91c983	0.28474054
229	0x3c9a4cf4	0.018835522
230	0xbef66a93	-0.48128185
231	0x3cd2b5ce	0.025721457
232	0xbe954f58	-0.29162097
233	0xbde038b9	-0.10948319
234	0x3f030d80	0.51192474
235	0xbebd51c4	-0.36976445
236	0x3f3fa839	0.7486606
237	0xbec20dcb	-0.37901148
238	0xbf181a66	-0.5941528
239	0xbed6c3a0	-0.41946125
240	0x3dd3ba2c	0.10338244
241	0x3e706136	0.23474583
242	0xbe87c1a3	-0.2651492
243	0xbed5cf44	-0.41759694
244	0xbf0c197d	-0.5472639
245	0xbbdd64e6	-0.006756413
246	0xbe6320f0	-0.22180533
247	0x3e285dab	0.16441981
248	0x3f06d77e	0.52672565
249	0x3e85ceaf	0.2613425
250	0xbe44e8ab	-0.19229381
251	0xbdc5a1b4	-0.09649983
252	0xbece7fe6	-0.40331954
253	0x3f531728	0.8245721
254	0xbeba6ebe	-0.36412615
255	0xbdfcf45e	-0.12351297

hidden_layers.0.bias f4 [128]
0	0x3f62bdb2	0.885707
1	0x3f1f5f6a	0.62254965
2	0x3eadfa71	0.33980134
3	0xc028a70d	-2.635196
4	0x3ea84d93	0.32871684
5	0xc02e4f92	-2.7236066
6	0xc04aeb6b	-3.1706188
7	0xbfc3a81e	-1.528568
8	0x3eeecb53	0.466395
9	0xbfb70ecd	-1.4301392
10	0x3fdd4d3a	1.7289193
11	0x3f0b4106	0.5439609
12	0x3faafb04	1.3357854
13	0xc00a0826	-2.1567473
14	0xbc7af54b	-0.015317271
15	0x3f00adda	0.50265276
16	0x3f0508d3	0.5196659
17	0x3e753b8d	0.23948498
18	0xbff958da	-1.948024
19	0x3f1d2536	0.61384904
20	0xbfa496a5	-1.2858473
21	0x3f5939ff	0.8485412
22	0xbeb12bf4	-0.34603846
23	0xbf38740c	-0.72052073
24	0x3f12ca11	0.5733958
25	0x3fb8f372	1.4449294
26	0x3f65deb8	0.89792967
27	0x3e424355	0.18970998
28	0x3f139b2c	0.5765865
29	0x3fb2ee74	1.397902
30	0x3f30c262	0.69046605
31	0xc0050cb3	-2.0789
32	0x3dba5ac8	0.090993464
33	0x3ee2899d	0.44245616
34	0xbf4793ab	-0.779597
35	0xc03fc612	-2.9964643
36	0x3ec16f23	0.37780103
37	0x3f15eeee	0.585677
38	0x40267c68	2.6013432
39	0x3f027ee3	0.50974864
40	0xc007281e	-2.1118236
41	0x3fab03d3	1.3360542
42	0xbe4df8e1	-0.20114471
43	0xbf8c0cf1	-1.0941449
44	0xbf205d96	-0.626428
45	0x3f7e4aff	0.99333185
46	0xbf6cffa3	-0.9257757
47	0xc005f25e	-2.092918
48	0xc04a0f65	-3.1571896
49	0x3fa521f2	1.2900984
50	0xbf32d5f8	-0.6985774
51	0x4006a37a	2.1037278
52	0x3f1ff2a3	0.6247961
53	0x40218ef3	2.52435
54	0x3ecc1ae7	0.39864275
55	0xbf061781	-0.52379614
56	0x4027325d	2.612449
57	0x3f950524	1.1642194
58	0xbfb1eb19	-1.3899871
59	0x40219311	2.5246012
60	0x3f02247f	0.5083694
61	0xb960f07b	-0.0002145189
62	0x3e9dd1ed	0.30824223
63	0x3fbf47cc	1.4943786
64	0x3ecb9591	0.39762548
65	0x3f150f76	0.58226717
66	0xbf86a4cb	-1.0519041
67	0x3e35f29f	0.17768334
68	0x3f771d42	0.9652902
69	0x3f907e13	1.1288475
70	0x3f5c2fdd	0.86010534
71	0x3f36ea68	0.71451426
72	0x3f25e1f1	0.64797884
73	0xbff1beb9	-1.8886329
74	0x3e7961d7	0.24353729
75	0x3f0a50be	0.5402945
76	0xbf92fd30	-1.1483517
77	0x3fb526bb	1.4152445
78	0xc01490fa	-2.3213487
79	0x3f734766	0.9503082
80	0x3fe707a5	1.8049208
81	0x3f0a4ac5	0.5402034
82	0x3ee90c1a	0.45517045
83	0x3ea06228	0.31324887
84	0x3efd4829	0.49469116
85	0x3f2fc17b	0.686546
86	0x3eddfce8	0.43357015
87	0x40138d0a	2.3054833
88	0x3e721dbb	0.23644154
89	0xbd87ff70	-0.06640518
90	0x3f20baee	0.6278523
91	0x3f3a5d73	0.7279884
92	0xc0494dee	-3.1453815
93	0x3f34d26d	0.70633584
94	0x3ebf1937	0.37323925
95	0x3f952e2f	1.1654719
96	0x3f5d0266	0.86331785
97	0x401682be	2.3517299
98	0x3d86f259	0.06589193
99	0xbdbda303	-0.09259608
100	0x3fb189b0	1.3870144
101	0x3f0365af	0.5132703
102	0x401f5d59	2.4900725
103	0x3fddcb8a	1.732774
104	0x3e87b8f5	0.265083
105	0x3eccd711	0.40007833
106	0x3f825f50	1.0185337
107	0xbe348c51	-0.17631651
108	0x3ebad3de	0.36489767
109	0x3ec66904	0.38751996
110	0xbffeb990	-1.9900379
111	0xbfef86a3	-1.8712963
112	0x3efba7fe	0.49151605
113	0xc004ba4c	-2.0738707
114	0x3fd39942	1.6531146
115	0x3f5e5197	0.86843246
116	0x3f259766	0.6468414
117	0x3f0d67a4	0.5523627
118	0x3f8e5bca	1.1121762
119	0x3f5a944a	0.8538252
120	0xbfc1d5e3	-1.5143398
121	0x3f56c564	0.83894944
122	0x3f2ed912	0.68299973
123	0x40188da0	2.383644
124	0x3e794033	0.24340896
125	0x3f3410ae	0.7033795
126	0x3feae10c	1.8349929
127	0x3eb15bb1	0.34640267

hidden_layers.1.weight f4 [128, 128]
0	0xbe937fee	-0.2880854
1	0x3f044dee	0.5168141
2	0x3e66e833	0.22549514
3	0x3f0d1a3a	0.55118144
4	0x3e9dfad9	0.30855444
5	0x3e1dff72	0.15429476
6	0x3e6b6f6d	0.22991724
7	0x3ecabe10	0.3959813
8	0x3de10459	0.109871574
9	0x3ea7d5cb	0.327803
10	0x3e584adf	0.21122311
11	0x3facb42d	1.3492485
12	0xbf6544dc	-0.89558196
13	0x3f070294	0.5273831
14	0xbee321a0	-0.4436159
15	0x3f85a98f	1.044237
16	0x3e99312d	0.2992033
17	0xbf0c3d49	-0.54781014
18	0x3e4940b3	0.19653587
19	0x3e3aa217	0.18225895
20	0x3e6d5e12	0.23180416
21	0x3dd9a0d7	0.10626381
22	0xbe500d3f	-0.20317553
23	0x3e44c24c	0.19214743
24	0x3e572381	0.21009637
25	0xbf0d881b	-0.55285805
26	0x3e0f1cf7	0.13975893
27	0xbceea933	-0.029133415
28	0xbf52681b	-0.821901
29	0x3e39a8f9	0.18130864
30	0x3eba51a7	0.3639042
31	0xbebd91bb	-0.37025246
32	0xbf6c8901	-0.9239655
33	0xbce48dd3	-0.027899658
34	0xbd8ca710	-0.06867802
35	0x3dde582a	0.1085666
36	0x3e2d6406	0.16932687
37	0x3e3d1b99	0.18467559
38	0xbdfdeef2	-0.12399091
39	0x3e86875e	0.26275152
40	0x3e81d0ec	0.25354707
41	0xbe59b126	-0.21258983
42	0xbeb87b83	-0.36031732
43	0x3d27d6aa	0.040976204
44	0xbf012bb6	-0.5045732
45	0x3d75246b	0.059849184
46	0x3ea1efaf	0.31628177
47	0x3ee503b6	0.44729394
48	0x3f051d3d	0.5199774
49	0xbd440c14	-0.04786308
50	0xbe080414	-0.13282806
51	0xbf0c4481	-0.5479203
52	0xbe65b518	-0.22432363
53	0x3d26650c	0.04062371
54	0x3e81bbb0	0.25338507
55	0xbdbe6ea3	-0.09298446
56	0x3d43bdaa	0.0477883
57	0xbee7290a	-0.45148498
58	0x3e0de59e	0.13857123
59	0xbe3b4095	-0.18286355
60	0x3f50b374	0.81523824
61	0xbf88aac6	-1.0677116
62	0xbd1c4117	-0.038148012
63	0x3df5a7ac	0.119948715
64	0x3dd5ce62	0.10439755
65	0x3ee86328	0.4538815
66	0x3e8bbf2f	0.272943
67	0x3e7de0df	0.24792813
68	0xbe18e0da	-0.14929524
69	0xbf70f157	-0.94118255
70	0x3cf1facb	0.029538533
71	0x3c3124c8	0.010811992
72	0xbf375c7f	-0.7162551
73	0x3e61af70	0.2203958
74	0x3c9d7f75	0.019225815
75	0xbd468241	-0.048464064
76	0x3e8d8a30	0.2764449
77	0x3c89fcdc	0.016844206
78	0x3f02560a	0.50912535
79	0xbe492852	-0.19644287
80	0x3d5a65eb	0.053319853
81	0x3f73303e	0.94995487
82	0x3cdabb12	0.02670053
83	0x3cb48c2f	0.022039501
84	0xbd3bb138	-0.045823306
85	0xbf4a3fde	-0.79003704
86	0x3e00d23a	0.12580195
87	0xbe2728ad	-0.1632411
88	0x3e85e2a0	0.26149464
89	0x3e52ca85	0.20585068
90	0xbf411d1b	-0.75435036
91	0xbf23d924	-0.64003205
92	0xbe2c7adb	-0.1684374
93	0xbf42a040	-0.7602577
94	0xbda49860	-0.08036876
95	0xbe4d9878	-0.20077693
96	0xbe5a4e99	-0.21319045
97	0xbe5bdcee	-0.21470997
98	0xbeb552e2	-0.35414797
99	0x3ed49f84	0.4152795
100	0xbef87337	-0.48525402
101	0x3eef3987	0.46723577
102	0xbc885ee7	-0.016646815
103	0xbeb57ea6	-0.35448188
104	0x3d8e5114	0.06949058
105	0x3eaebf6b	0.34130415
106	0x3eb0bfd6	0.3452136
107	0x3e9235d5	0.28556696
108	0x3efa51d9	0.4889057
109	0x3db029ee	0.086017475
110	0x3e81b222	0.25331217
111	0xbd45b875	-0.048271615
112	0x3e948948	0.29010987
113	0x3e817bfd	0.25289908
114	0xbf71b819	-0.94421536
115	0xbe9c0b05	-0.30477157
116	0x3e8409f8	0.25788856
117	0x3f19306d	0.59839517
118	0x3d8bb4e6	0.06821613
119	0x3de61b2d	0.11235652
120	0xbf0c57e5	-0.54821616
121	0xbf91f5d7	-1.1403149
122	0x3b861cca	0.0040927874
123	0xbd0d96d8	-0.034567684
124	0xbf16b720	-0.58873177
125	0xbec154a9	-0.37759903
126	0xbeb90635	-0.36137548
127	0x3f51892e	0.81849945
128	0xbf2be3c3	-0.6714441
129	0x3e93466b	0.28764662
130	0xbfcec964	-1.615521
131	0x3e5a2b26	0.21305522
132	0x3eebf137	0.4608247
133	0x3eb31025	0.34973255
134	0xbf02c274	-0.5107796
135	0xbe2dcb7e	-0.16972157
136	0xbe508f09	-0.20367064
137	0xbd982f05	-0.07430843
138	0xbcf5e22d	-0.030015076
139	0x3f80841f	1.004032
140	0xbf850bf8	-1.0394278
141	0x3e715ac9	0.23569788
142	0xbee40a1c	-0.44538963
143	0x3e5e1185	0.2168637
144	0x3eef35fa	0.46720868
145	0xbc5f97a5	-0.013646995
146	0xbdffc549	-0.12488801
147	0xbda0164d	-0.078167535
148	0x3e412e82	0.18865398
149	0xbfa7204b	-1.305673
150	0x3e8a9c1f	0.27072236
151	0x3eebf97e	0.46088785
152	0xbf5a90fd	-0.85377485
153	0x3d899316	0.067175075
154	0xbf8c82c8	-1.0977411
155	0x3e2a14f8	0.16609561
156	0xbf3ad56c	-0.72981906
157	0xbee01fc7	-0.43774244
158	0x3f28c852	0.65930665
159	0x3e4c22f8	0.19935215
160	0xbf6c2204	-0.92239404
161	0x3e15413b	0.14575665
162	0x3e98def4	0.298576
163	0x3e0b5e39	0.13610162
164	0xbe12a53e	-0.14320847
165	0x3e0dea14	0.13858825
166	0x3e0ce864	0.13760525
167	0x3e36a65d	0.178369
168	0x3e6a9fb9	0.22912492
169	0xbf9b3fd9	-1.212886
170	0xbde9274e	-0.1138445
171	0x3e971768	0.29510045
172	0xbe79b821	-0.24386646
173	0x3df481a5	0.1193879
174	0x3e73afba	0.23797503
175	0x3ecd7f25	0.40136066
176	0x3f1a23b2	0.60210717
177	0xbf00a250	-0.5024767
178	0xbeb5db37	-0.3551881
179	0xbdc38687	-0.095471434
180	0xbf2d51b0	-0.6770277
181	0x3df7b956	0.12095897
182	0xbe3d82ef	-0.18506978
183	0x3e2711bf	0.16315363
184	0xbde17a21	-0.11009622
185	0xbf398966	-0.7247528
186	0x3e20162c	0.15633458
187	0xbc4222b4	-0.011849094
188	0x3ef688f3	0.4815136
189	0xbab10ea3	-0.001350839
190	0x3ef4e092	0.47827584
191	0x3def45cd	0.11683235
192	0x3e6af485	0.2294484
193	0x3f3b32d7	0.7312445
194	0x3e041271	0.1289766
195	0xbf011596	-0.5042356
196	0x3b1a29e5	0.0023523506
197	0xbf245ff7	-0.6420893
198	0x3d155d88	0.03646615
199	0x3e8dc75e	0.27691168
200	0x3df9f37b	0.12204643
201	0xbe4e6021	-0.20153858
202	0x3ebedf56	0.37279767
203	0x3d953bae	0.072867736
204	0xbe7949cc	-0.24344558
205	0x3cb83f76	0.022491198
206	0xbead1caa	-0.3381093
207	0xbf427eec	-0.7597492
208	0xbf0014a4	-0.50031495
209	0x3eab0a14	0.33406126
210	0x3e0360c7	0.12829886
211	0x3ecdab95	0.4016997
212	0x3ea36487	0.31912634
213	0x3e1c5785	0.15267761
214	0x3e02b4cc	0.12764281
215	0x3c5c9413	0.013463038
216	0x3e3f032f	0.18653558
217	0x3e704a0d	0.23465748
218	0xbefdd172	-0.49573857
219	0x3f0a9bb6	0.54143846
220	0x3efc0150	0.4921975
221	0x3e48c000	0.19604492
222	0xbe7a938c	-0.24470347
223	0xbe416ac5	-0.18888386
224	0x3ea8415b	0.32862362
225	0xbe08e6a5	-0.13369234
226	0xbdc54351	-0.0963198
227	0x3eed800e	0.4638676
228	0xbf35d4f0	-0.7102804
229	0xbe921a94	-0.28535903
230	0x3d7d6a01	0.06186867
231	0x3d248f55	0.040175755
232	0xbe6ee884	-0.23330885
233	0x3edcc78b	0.4312099
234	0x3d60206c	0.05471842
235	0x3ea4d40a	0.32193023
236	0x3eabfae5	0.33589855
237	0x3f0dafd8	0.5534644
238	0xbe538179	-0.20654859
239	0x3efc2a1e	0.49250883
240	0xbda211b9	-0.079135366
241	0x3f2b0ada	0.66813433
242	0xbf8f096c	-1.117475
243	0x3e8ad656	0.2711665
244	0xbe2afe1f	-0.16698502
245	0x3ecd46cb	0.40093073
246	0x3ef604d8	0.4805057
247	0x3f046918	0.5172286
248	0x3d8fc8a1	0.07020689
249	0xbea0b445	-0.31387535
250	0x3eca0951	0.39460233
251	0xbd06d36e	-0.03291648
252	0xbb6812aa	-0.0035411515
253	0x3eb33097	0.3499801
254	0x3ee3460f	0.44389388
255	0x3e8d5d06	0.27610034

hidden_layers.1.bias f4 [128]
0	0xbde8ae14	-0.11361328
1	0xbcec1c84	-0.028822191
2	0x3e30b763	0.17257456
3	0x3f1d2a17	0.6139235
4	0x3e81cdfc	0.25352466
5	0xbcde24b0	-0.027117103
6	0x3e89e3af	0.2693152
7	0x3d3d47af	0.04621094
8	0x3e872c16	0.26400822
9	0x3e24b8a0	0.16086054
10	0x3e4be9cb	0.19913404
11	0x3e929fad	0.28637448
12	0x3e133e3a	0.14379206
13	0x3e93a5c2	0.288374
14	0x3cf7dc7a	0.030256499
15	0x3ed40979	0.41413477
16	0x3e9cb56c	0.30607164
17	0x3e94e65b	0.29081997
18	0x3e558392	0.20850971
19	0xbebb8294	-0.3662306
20	0x3cd96e15	0.026541749
21	0x3ed00058	0.40625262
22	0x3ecabc93	0.39596996
23	0x3dedba11	0.11607755
24	0x3d201d92	0.0390907
25	0x3ea178a8	0.31537366
26	0x3e9d6543	0.3074132
27	0x3dec34c4	0.11533502
28	0x3e34d026	0.17657527
29	0xbe15aa17	-0.14615665
30	0x3e660160	0.22461462
31	0xbb8fac2e	-0.004384539
32	0xbeec63e5	-0.46169963
33	0x3ef9e6d9	0.48808935
34	0x3e5cb163	0.21552043
35	0x3dd6c706	0.104871795
36	0x3e0e4894	0.13894874
37	0x3efc52a1	0.4928179
38	0x3ca40913	0.020023858
39	0x3eb3f88f	0.35150573
40	0xbd771fa5	-0.060332913
41	0xbf0a7007	-0.5407719
42	0x3e10a5aa	0.14125696
43	0x3e8968ec	0.26837862
44	0xbe4762e6	-0.1947132
45	0x3ec6566c	0.3873781
46	0x3ea6c3ac	0.3257116
47	0x3e259577	0.16170298
48	0x3ec2458d	0.37943688
49	0x3e74ab50	0.23893476
50	0xbdc7ded7	-0.097593
51	0x3e535f15	0.2064174
52	0x3f035299	0.5129791
53	0x3e693916	0.22775683
54	0x3eb428d6	0.35187405
55	0x3ee98423	0.45608625
56	0x3e8e71a4	0.27821076
57	0xbf0789bd	-0.52944547
58	0x3de1c26c	0.11023411
59	0x3e36e626	0.17861232
60	0xbd3aabac	-0.045573875
61	0x3e9b4630	0.30326986
62	0xbddb147e	-0.10697268
63	0xbbe7dc72	-0.0070758397
64	0xbde5405b	-0.111939155
65	0x3e92c369	0.2866471
66	0x3e67ce20	0.22637224
67	0x3ebad129	0.36487702
68	0x3e965dae	0.29368347
69	0x3e630b10	0.22172189
70	0x3e55bd39	0.20872964
71	0x3dbdf626	0.09275465
72	0x3e0eeb11	0.13956858
73	0x3eb68e16	0.35655278
74	0x3e51c7c1	0.20486356
75	0x3e215d08	0.15758145
76	0xbe75fa21	-0.24021198
77	0x3e2a90db	0.1665682
78	0xbd3b1f65	-0.045684237
79	0x3e7ab146	0.24481687
80	0x3e3d25ea	0.18471494
81	0x3f21f701	0.63267523
82	0x3bd82f56	0.0065974398
83	0x3e566a0d	0.20938893
84	0x3ec51391	0.3849149
85	0x3f048bd8	0.51775885
86	0x3e7abdab	0.24486415
87	0x3d6d597a	0.05794666
88	0x3ee7eec1	0.45299342
89	0x3d3032d4	0.043017223
90	0x3e9dee9f	0.30846116
91	0xbefbc94b	-0.49177012
92	0x3e9c02c7	0.3047087
93	0xbd959c13	-0.073051594
94	0x3e29884b	0.16555898
95	0xbef067e1	-0.46954253
96	0x3e03b2f5	0.12861235
97	0x3e9b55f3	0.30339012
98	0x3efb5f1c	0.49096
99	0xbe791f77	-0.24328409
100	0x3ea9c0eb	0.33154997
101	0x3e7562d4	0.23963481
102	0x3e5764d4	0.21034557
103	0x3e87ac46	0.26498622
104	0x3e6ea563	0.23305278
105	0x3e96ad54	0.29429114
106	0x3eac76be	0.33684343
107	0x3e02d334	0.1277588
108	0x3eb270bb	0.34851632
109	0x3e46ce8f	0.19414733
110	0xbeb63485	-0.35586944
111	0x3eb75c10	0.35812426
112	0x3e7cdba5	0.24693163
113	0xbdcfce04	-0.10146716
114	0xbdc300b4	-0.095216185
115	0xbe42a100	-0.19006729
116	0x3e896445	0.26834312
117	0x3e28c292	0.16480473
118	0x3e8c5d96	0.2741515
119	0x3ee25c11	0.44210866
120	0x3d4ade54	0.049528435
121	0x3ed388a0	0.41315174
122	0x3ee95c31	0.4557815
123	0x3ea60dd6	0.3243243
124	0x3e83d0f7	0.25745365
125	0xbef5270c	-0.47881353
126	0x3ee7242c	0.45144784
127	0x3eaed981	0.34150317

hidden_layers.2.weight f4 [128, 128]
0	0x3d3cf68f	0.046133574
1	0xbea5fe72	-0.3242069
2	0x3d421c94	0.047390535
3	0xbf0873bc	-0.53301597
4	0xbdc5f1c1	-0.096652515
5	0x3d28e460	0.04123342
6	0x3e907e29	0.28221253
7	0xbf4d8d93	-0.8029415
8	0x3e961871	0.29315522
9	0x3ec9ea41	0.39436534
10	0xbf32b8a0	-0.69812965
11	0x3dc72caf	0.097253196
12	0xbe955f95	-0.29174486
13	0x3e189644	0.14901072
14	0xbe44c857	-0.19217049
15	0x3dfc45c2	0.12317993
16	0x3e1be03f	0.15222262
17	0xbdc0a6f2	-0.09406842
18	0x3d008249	0.03137425
19	0xbf2154c1	-0.6301995
20	0xbf2124db	-0.6294686
21	0x3edbf8a2	0.4296313
22	0x3d2422aa	0.04007212
23	0x3f2e52a5	0.68094856
24	0x3dc08c67	0.094017796
25	0x3e0a4f9b	0.1350693
26	0x3f8103cd	1.0079285
27	0x3cdc2eba	0.02687775
28	0xbe9e3525	-0.3089992
29	0xbf834e30	-1.0258236
30	0xbd41123a	-0.047136523
31	0x3e5191ed	0.20465823
32	0xbf266698	-0.65000296
33	0x3c51f04b	0.012813638
34	0x3e299aaf	0.16562913
35	0x3e8f920b	0.2804111
36	0xbcd146b8	-0.025546417
37	0x3ccc1b15	0.024915257
38	0xbe4603c0	-0.19337368
39	0x3e166493	0.14686804
40	0xbe8e8bb3	-0.27840957
41	0xbf86bbe9	-1.0526096
42	0x3eca2653	0.39482364
43	0x3d5c4c9f	0.05378401
44	0x3eb003d5	0.34377924
45	0x3e7725c9	0.24135508
46	0x3ead9c4d	0.3390831
47	0xbd869bad	-0.065726615
48	0x3e3e5bc8	0.185897
49	0x3e254727	0.16140424
50	0x3e38365f	0.17989491
51	0xbe300ec4	-0.17193133
52	0x3f067577	0.5252299
53	0x3f9ecc58	1.2406111
54	0xbf0403cc	-0.51568294
55	0xbe3a6dce	-0.1820595
56	0x3d3a658c	0.045507
57	0xbec45340	-0.38344765
58	0xbd92e323	-0.07172229
59	0xbe5443ab	-0.20728938
60	0x3d97b0aa	0.07406743
61	0x3e6e64aa	0.23280588
62	0xbd827f37	-0.063719206
63	0xbec8c783	-0.39214715
64	0x3d96b92a	0.07359536
65	0x3ed3afda	0.41345102
66	0xbeb52dec	-0.35386598
67	0x3e96e317	0.2947013
68	0xbe96c71b	-0.2944878
69	0x3eaa0fd5	0.33215204
70	0x3d1f1082	0.038834102
71	0xbf670c68	-0.90253305
72	0x3eeb77b1	0.45989755
73	0x3f314460	0.69244957
74	0xbf80e6bf	-1.0070418
75	0xbdc4289d	-0.09578059
76	0x3f00eb0c	0.50358653
77	0xbe045cba	-0.12925997
78	0x3db7f780	0.08982754
79	0x3f06f50e	0.52717674
80	0xbf2de954	-0.67934155
81	0xbea6537b	-0.32485566
82	0x3f597b51	0.8495379
83	0xbc7a54a0	-0.015278965
84	0x3df8218a	0.12115772
85	0x3e8abe70	0.27098417
86	0x3e53c175	0.20679267
87	0xbdad137f	-0.08450984
88	0x3d7aa325	0.061190743
89	0xbd5a5bdb	-0.053310256
90	0xbdeecc91	-0.11660112
91	0xbf4f290d	-0.80922014
92	0xbef10e26	-0.47081107
93	0x3e0e47dc	0.138946
94	0xbe39b7a2	-0.18136457
95	0xbef2df7d	-0.47436133
96	0xbf32d981	-0.69863135
97	0x3ed87c4c	0.4228233
98	0x3e78b3fa	0.24287406
99	0xbc9c97f9	-0.019115435
100	0xbdd512ed	-0.104040004
101	0xbe737755	-0.2377599
102	0xbe985bca	-0.2975753
103	0xbdf4b5bd	-0.11948726
104	0x3e8295c6	0.25504893
105	0x3ed14a84	0.40877163
106	0xbea56502	-0.32303625
107	0xbf2ce035	-0.6752961
108	0x3f06a7cc	0.5259979
109	0x3d83e717	0.06440561
110	0xbe091fb9	-0.13391007
111	0x3e231022	0.15924123
112	0x3e5b5d58	0.21422327
113	0xbeb0e730	-0.34551382
114	0x3cfb7b8d	0.030698562
115	0xbf3d5f39	-0.73973423
116	0x3deb1b5c	0.11479828
117	0x3e4a06f2	0.19729212
118	0xbe033cb4	-0.12816125
119	0x3e4ab454	0.19795352
120	0xbc581ebb	-0.01319092
121	0x3c919979	0.017773377
122	0xbcaa1c40	-0.020765424
123	0x3f44cb7c	0.7687299
124	0xbdf9b82d	-0.12193332
125	0xbf970180	-1.1797333
126	0x3f362d2d	0.7116268
127	0x3e1aaadd	0.15104242
128	0x3f2938af	0.6610212
129	0xbe26aade	-0.16276118
130	0xbe6dc2d1	-0.23218848
131	0xbee0db20	-0.4391718
132	0xbf102c80	-0.563179
133	0xbd61a9a9	-0.05509344
134	0xbd786268	-0.060640723
135	0xbe58223b	-0.21106808
136	0xbf377405	-0.71661407
137	0xbda415cc	-0.0801197
138	0xbf12def0	-0.57371426
139	0xbef699fa	-0.4816435
140	0x3f8dce48	1.1078577
141	0x3dd4db84	0.10393432
142	0x3e822a01	0.2542267
143	0x3e72e0c9	0.23718561
144	0x3e0f7066	0.1400772
145	0x3e20a999	0.15689696
146	0x3e896524	0.26834977
147	0x3e2bcae7	0.1677662
148	0xbf5443de	-0.8291606
149	0x3f0da5dc	0.55331206
150	0x3df7340b	0.12070473
151	0xbf74788f	-0.9549646
152	0x3e979713	0.29607448
153	0xbf1b35a9	-0.60628754
154	0xbe6f15c6	-0.2334815
155	0xbcce0863	-0.025150483
156	0xbd064d63	-0.032788645
157	0xbe4c2884	-0.1993733
158	0x3ec8d78e	0.39226955
159	0xbf697d33	-0.91206664
160	0x3d34ed7b	0.04417179
161	0xbe873f39	-0.26415423
162	0x3c105634	0.008809615
163	0x3df955fc	0.12174603
164	0x3e0bc1dc	0.1364817
165	0x3e14ed02	0.14543536
166	0xbf02ec5a	-0.51141894
167	0xbd909b20	-0.07060838
168	0xbf0e1ff4	-0.55517507
169	0xbf040543	-0.5157053
170	0xbdf64106	-0.12024121
171	0x3eeb5a61	0.4596739
172	0x3f14e211	0.5815745
173	0x3e089d57	0.1334127
174	0x3c89a5cf	0.016802697
175	0x3f0a76a5	0.5408729
176	0x3eb3f7ef	0.35150096
177	0x3ddc55bf	0.10758542
178	0x3e7075ea	0.2348248
179	0x3f24239c	0.64116836
180	0xbae40fe2	-0.0017399753
181	0xbcb52106	-0.022110473
182	0xbda720a7	-0.08160525
183	0xbdc973cd	-0.0983654
184	0x3ef05133	0.4693695
185	0xbe51ee82	-0.2050114
186	0x3e003ac8	0.12522423
187	0xbf846212	-1.0342429
188	0xbc97f48b	-0.018549224
189	0x3f25dda0	0.647913
190	0xbe3cdf38	-0.18444526
191	0xbe08256e	-0.13295528
192	0x3e308ecb	0.17241971
193	0x3ed8b5a1	0.42326072
194	0xbf016cf0	-0.5055685
195	0xbda87c1d	-0.08226798
196	0xbecaa97c	-0.3958243
197	0xbf89e835	-1.0773989
198	0x3e297fac	0.16552609
199	0xbf079e67	-0.5297608
200	0x3e8f7d15	0.28025118
201	0x3d463181	0.048387054
202	0xbf201513	-0.62532157
203	0xbeb68419	-0.35647658
204	0x3cfe4043	0.031036502
205	0x3f3ffe33	0.7499725
206	0x3edb2dc2	0.42808348
207	0x3ef0dae8	0.47042012
208	0xbf0e4f08	-0.5558934
209	0x3ec0b94f	0.3764138
210	0xbf0023a2	-0.5005437
211	0xbf11d145	-0.56959945
212	0xbd8461dc	-0.06463978
213	0x3eda6e08	0.42662072
214	0x3e10468b	0.1408941
215	0x3e0f7f54	0.14013416
216	0x3f52337d	0.82109815
217	0x3e400da8	0.1875521
218	0xbe2c3cd0	-0.16820073
219	0xbdc00283	-0.09375479
220	0x3f1163de	0.5679301
221	0xbfaf3525	-1.3688093
222	0x3e914ebf	0.2838039
223	0x3e99963d	0.29997435
224	0xbeb6db84	-0.35714352
225	0x3dfb30b2	0.12265147
226	0x3ed78ff1	0.42102006
227	0x3f87581e	1.0573766
228	0x3e889762	0.26677996
229	0x3d940a87	0.072285704
230	0xbf1663d2	-0.58746064
231	0x3eeb6bc9	0.4598067
232	0x3daf413f	0.085573666
233	0xbd2c1b6d	-0.042018343
234	0x3ec2c805	0.38043228
235	0xbd12fd55	-0.035886128
236	0x3edb35ba	0.42814428
237	0x3e398ca2	0.18120053
238	0x3d8b1344	0.06790784
239	0x3e036022	0.1282964
240	0x3da781af	0.08179032
241	0xbf5235c1	-0.8211327
242	0x3f022021	0.50830275
243	0xbe25da96	-0.16196665
244	0xbe5ef8a7	-0.21774541
245	0x3e9d8f47	0.30773374
246	0x3dcec837	0.10096782
247	0x3eea8743	0.45806322
248	0x3e366d17	0.17815052
249	0x3ef424a4	0.47684205
250	0xbe9f1118	-0.3106773
251	0x3f212094	0.62940335
252	0xbf8c6e8f	-1.097124
253	0xbeedefaa	-0.46471912
254	0x3eb2bf05	0.3491136
255	0xbe1c5ac9	-0.15269007

hidden_layers.2.bias f4 [128]
0	0x3e9a0ac5	0.30086342
1	0x3e5ccc70	0.21562362
2	0xbdcf2b2e	-0.10115658
3	0xbcdf971e	-0.027293738
4	0xbd106416	-0.0352517
5	0x3d0647fc	0.032783493
6	0xbdaeead6	-0.08540885
7	0x3da932ef	0.08261668
8	0xbc8c8a15	-0.017155686
9	0x3eae3d12	0.34030968
10	0xbe337d7a	-0.17528334
11	0x3e147152	0.14496353
12	0x3e8ff890	0.28119326
13	0x3ea48da6	0.3213932
14	0xbd397242	-0.04527498
15	0xbd5768b5	-0.05259009
16	0xbde2b07e	-0.110688195
17	0xbd669897	-0.056297865
18	0x3ec75147	0.38929197
19	0x3e7b2dc9	0.24529184
20	0xbd509fbf	-0.050933596
21	0xbd6e85e0	-0.058233142
22	0x3ef9327b	0.48671326
23	0x3d12674c	0.035743043
24	0x3ddf228e	0.10895263
25	0x3e955615	0.29167238
26	0xb96b4a5d	-0.00022439049
27	0x3f009482	0.50226605
28	0x3dbbd5bb	0.09171625
29	0xbe31460b	-0.17311876
30	0xbbce46a2	-0.006295041
31	0x3e2f1291	0.17096926
32	0x3e0bf871	0.13668992
33	0x3eb6c89e	0.35699934
34	0x3f0613c3	0.52373904
35	0x3e8ace63	0.27110586
36	0xbea68d34	-0.32529604
37	0xbe499596	-0.19685969
38	0xbe830487	-0.25589392
39	0xbe0c6448	-0.1371013
40	0x3e00733e	0.12543961
41	0xbe0d5eb9	-0.13805665
42	0x3e861ab8	0.2619226
43	0xbd0a6259	-0.033785198
44	0x3ed37341	0.4129887
45	0x3ec48c3e	0.38388246
46	0xbe0a9a2c	-0.13535374
47	0x3e884e54	0.2662226
48	0xbb5b7ad5	-0.0033489962
49	0x3df7936e	0.12088667
50	0xbd95a77e	-0.07307337
51	0x3e86815c	0.26270568
52	0xbc9ec3e4	-0.019380517
53	0xbb6c56e4	-0.0036062533
54	0x3d35907a	0.044327237
55	0xbbe202b0	-0.006897293
56	0x3e1c977f	0.15292166
57	0x3f0a58c5	0.540417
58	0x3e177cdc	0.14793724
59	0x3dc55522	0.096353784
60	0x3e5f58c6	0.21811208
61	0x3df71c29	0.12065918
62	0xbe94f3e2	-0.29092318
63	0xbca3e247	-0.020005358
64	0x3de6a783	0.11262419
65	0xbe5d2b27	-0.21598493
66	0x3e36fc78	0.17869747
67	0xbb49dcd7	-0.0030801797
68	0x3e28c7a5	0.16482408
69	0xbd7ec632	-0.062200733
70	0xbe92b9e3	-0.28657445
71	0x3dcc4ecf	0.09975969
72	0xbe906f5f	-0.2820997
73	0x3ef59150	0.47962427
74	0x3ed25162	0.41077715
75	0xbe9a1626	-0.30095023
76	0x3d022013	0.03176887
77	0xbca4076c	-0.02002307
78	0x3c8e6445	0.017381797
79	0xbeb898e7	-0.36054155
80	0x3d9a5863	0.0753639
81	0xbd6c22dc	-0.057650432
82	0xbcd34ee9	-0.025794463
83	0x3f375b58	0.71623755
84	0x3dc8dada	0.098073676
85	0x3eda5e62	0.42650133
86	0xbe89bd52	-0.26902252
87	0x3dc02776	0.093825266
88	0x3ec7223d	0.3889331
89	0xbdb1f2db	-0.08688899
90	0x3da0c04e	0.07849179
91	0xbe93701d	-0.28796473
92	0x3d1bd304	0.038043037
93	0x3dfaaf57	0.12240475
94	0xbbd5e53b	-0.0065275705
95	0x3e891b7d	0.26778784
96	0xbe5939c5	-0.21213444
97	0x3eae4941	0.34040263
98	0xbdb6d261	-0.08926845
99	0x3de47103	0.11154368
100	0x3e020704	0.12697989
101	0x3e465ca3	0.19371276
102	0x3e718e08	0.23589337
103	0xbe52e32e	-0.20594475
104	0xbe2cf945	-0.16891964
105	0xbea8333c	-0.3285159
106	0xbdf7729c	-0.12082407
107	0x3db592f4	0.0886592
108	0x3ea93684	0.33049405
109	0x3e0f8d1f	0.14018677
110	0x3ed044cc	0.40677488
111	0x3e05b808	0.13058484
112	0xbe1b4cb2	-0.15165976
113	0xbe370ea8	-0.17876685
114	0x3e9a976b	0.30193648
115	0x3dda2ec1	0.10653449
116	0x3ed34567	0.41263887
117	0x3ee5ba13	0.44868526
118	0x3ef7c507	0.48392507
119	0x3edb1a6b	0.42793593
120	0x3e8226a3	0.25420102
121	0xbcac1f42	-0.021010999
122	0xbe3bdc87	-0.18345843
123	0x3d5d3f0e	0.05401521
124	0xbcb456f6	-0.022014122
125	0x3ea9e00d	0.3317875
126	0x3e9111fa	0.28334028
127	0x3d9c5b7a	0.07634635

hidden_layers.3.weight f4 [128, 128]
0	0xbdaf993f	-0.08574151
1	0x3d0edca6	0.034878395
2	0xbdfb8728	-0.122816384
3	0x3e540863	0.20706324
4	0xbe653555	-0.22383626
5	0x3e66b71e	0.22530791
6	0x3e657ea4	0.22411591
7	0x3ee98456	0.45608777
8	0x3eb91b81	0.36153796
9	0x3e96dc4c	0.29464948
10	0x3e455f89	0.19274725
11	0xbebfd8a4	-0.3746997
12	0xbd77e158	-0.06051764
13	0x3e8cfabd	0.27535048
14	0x3f0dfb7f	0.5546188
15	0xbe9637c7	-0.2933943
16	0x3ed1be0c	0.40965307
17	0x3f099e21	0.5375691
18	0xbc9f68ba	-0.019459117
19	0x3f087dc1	0.53316885
20	0x3ea64554	0.32474768
21	0xbd04b668	-0.03240052
22	0xbca91bdb	-0.020643165
23	0xbf034426	-0.5127586
24	0x3c89d416	0.016824763
25	0xbe8b6965	-0.27228847
26	0x3da78be7	0.08180981
27	0x3e6e1484	0.23250014
28	0x3e887b84	0.26656735
29	0x3f0e57af	0.55602545
30	0x3f1b6632	0.6070281
31	0x3e6dfb0f	0.23240303
32	0xbe887b8a	-0.26656753
33	0xbcaf6141	-0.021408679
34	0xbd321b91	-0.04348332
35	0x3e9842e1	0.29738525
36	0xbf0f948c	-0.5608604
37	0x3eace6f7	0.33769962
38	0xbdb2f553	-0.08738198
39	0x3e96ad37	0.29429027
40	0x3d1b1116	0.03785809
41	0x3efe1800	0.49627686
42	0xbd0e8829	-0.03479782
43	0x3f273f5f	0.6533107
44	0x3e2b180f	0.16708396
45	0x3dee89b3	0.11647358
46	0x3deb71ec	0.11496338
47	0xbe11ad83	-0.14226346
48	0xbe1a5aed	-0.15073748
49	0x3ee6f75e	0.451106
50	0xbf0c0492	-0.54694474
51	0x3eb897d0	0.36053324
52	0x3ed2cc05	0.4117128
53	0x3defafb3	0.11703434
54	0xbea09317	-0.3136222
55	0x3eb64763	0.3560134
56	0xbdaa7472	-0.083229914
57	0x3d58f480	0.05296755
58	0x3e0db92d	0.1384017
59	0x3e3dd3f2	0.18537882
60	0x3e12c904	0.14334494
61	0x3f242115	0.6411298
62	0xbf104998	-0.56362295
63	0x3ee7d3f6	0.452789
64	0x3e8df9ff	0.27729794
65	0x3e063d5a	0.13109341
66	0x3d310252	0.043215103
67	0x3e317747	0.17330657
68	0x3ee3b9ad	0.44477597
69	0xbed451a8	-0.4146855
70	0xbef94387	-0.48684332
71	0x3e205525	0.1565748
72	0x3f09c989	0.53823143
73	0x3da98545	0.08277372
74	0x3e216dbf	0.15764521
75	0xbddd0a78	-0.107930124
76	0x3f133f08	0.57518053
77	0xbed3959a	-0.41325074
78	0x3ec7fa6c	0.39058244
79	0xbf0dd0aa	-0.5539652
80	0xbee1820d	-0.44044533
81	0x3f18744f	0.5955247
82	0xbf064714	-0.52452207
83	0x3de326ee	0.110914096
84	0xbeec0e6c	-0.46104753
85	0xbc782de0	-0.015147656
86	0x3f258fbb	0.6467244
87	0x3f1b6a61	0.60709196
88	0x3e2d39d5	0.16916592
89	0xbefa9dbf	-0.48948476
90	0x3e2b3c14	0.16722137
91	0xbf35401d	-0.70800954
92	0x3ea20672	0.31645542
93	0x3e3c80e2	0.1840854
94	0x3e9516d6	0.29118985
95	0xbdd199d7	-0.10234421
96	0x3f2ed66b	0.68295926
97	0x3e3f60c7	0.18689261
98	0x3ed69c81	0.41916278
99	0x3f40285d	0.7506159
100	0x3ed9a1f4	0.42506373
101	0x3e131e52	0.14367035
102	0x3e3596ac	0.17733258
103	0xbe189d6a	-0.14903799
104	0xbf1c642c	-0.6109035
105	0xbecc6109	-0.39917782
106	0x3f297d90	0.6620722
107	0x3ed95792	0.42449623
108	0x3e863c0f	0.26217696
109	0x3d51ca2e	0.051218204
110	0x3eaac436	0.33352822
111	0x3f1f1f2b	0.62156934
112	0xbe9b44ca	-0.3032592
113	0xbd210344	-0.039309755
114	0xbd708a9c	-0.05872594
115	0xbed1c496	-0.40970296
116	0x3e0b618c	0.1361143
117	0x3e56f91c	0.20993465
118	0xbda7b0ca	-0.08188017
119	0x3e6100e5	0.21972997
120	0x3ebecb08	0.37264276
121	0xbf073a3b	-0.5282323
122	0xbf282004	-0.6567385
123	0x3e46374b	0.1935703
124	0xbf1a5612	-0.6028758
125	0x3ec9ba3a	0.39399892
126	0x3eaeaa17	0.34114143
127	0xbee9316b	-0.45545515
128	0xbebae14c	-0.36500013
129	0xbe001ffb	-0.125122
130	0xbe780d49	-0.24223818
131	0x3f61cc12	0.8820201
132	0xbee70d7a	-0.4512747
133	0x3f7d00ae	0.9882916
134	0x3f20249d	0.6255587
135	0xbe6dba4b	-0.23215596
136	0xbc3a2366	-0.011360979
137	0xbe69a61c	-0.22817272
138	0x3db4867d	0.08814714
139	0xbee18b78	-0.4405172
140	0x3f20605d	0.6264704
141	0xbcf68b9c	-0.030095868
142	0x3de4bf47	0.11169296
143	0xbe8e247e	-0.27762216
144	0x3f403093	0.7507412
145	0xbe8ed852	-0.27899414
146	0xbf0459b5	-0.5169938
147	0x3d3e057d	0.046391953
148	0x3ec7f531	0.39054254
149	0xbe8fb513	-0.28067836
150	0x3e8d9e1c	0.2765969
151	0xbec88390	-0.39162874
152	0x3f279459	0.65460736
153	0x3f12de90	0.57370853
154	0x3f44b62e	0.76840484
155	0xbe6019f6	-0.21884903
156	0xbe0d710c	-0.13812655
157	0x3bd94372	0.0066303546
158	0xbe2d88a7	-0.1694666
159	0x3ee34940	0.44391823
160	0xbe8da70a	-0.27666503
161	0x3d0d071a	0.0344306
162	0xbefb6727	-0.49102136
163	0xbeb49051	-0.35266355
164	0xbeb1225c	-0.34596527
165	0x3de2bca1	0.11071134
166	0xbdc708cb	-0.09718474
167	0x3f517557	0.8181967
168	0x3e138c06	0.14408883
169	0xbe532f98	-0.20623624
170	0xbe43c17a	-0.19116774
171	0x3da60236	0.081058905
172	0xbbaa4095	-0.005195687
173	0xbddfe636	-0.10932581
174	0xbd6e5a98	-0.058191866
175	0xbf082cac	-0.53193164
176	0xbdedb9c7	-0.116077
177	0x3e29d21d	0.16584058
178	0xbf1d33ec	-0.6140735
179	0xbe91e7ff	-0.2849731
180	0xbe4498af	-0.19198869
181	0x3dfcb6c8	0.1233955
182	0xbed3d79c	-0.41375434
183	0x3ce1ef53	0.027579939
184	0xbe8b8c69	-0.27255562
185	0xbe2dbd9d	-0.16966863
186	0x3f3deeb8	0.7419238
187	0xbe84f5e4	-0.2596885
188	0x3de75a9c	0.11296579
189	0x3e0eaa68	0.13932192
190	0xbedec978	-0.43513083
191	0xbd94dba0	-0.07268453
192	0x3ea0cd2f	0.31406543
193	0x3f8d3a1d	1.103336
194	0x3f2fa625	0.6861289
195	0xbeae99cd	-0.34101716
196	0x3e9084aa	0.28226215
197	0xbf0b0c16	-0.54315317
198	0xbe7c353d	-0.24629684
199	0x3f71b05d	0.94409734
200	0x3ee2e5dc	0.44315994
201	0xbea3a50e	-0.31961864
202	0xbe8c435f	-0.2739515
203	0xbd56d521	-0.05244935
204	0x3e69b1e4	0.22821766
205	0xbefd697b	-0.49494538
206	0x3e2afcd1	0.16698004
207	0xbf06358d	-0.5242546
208	0xbee3c570	-0.4448657
209	0xbd724738	-0.05914995
210	0xbee39171	-0.444469
211	0xbe3b661e	-0.18300673
212	0xbeb7e4b4	-0.35916674
213	0x3e450102	0.19238666
214	0x3f15da51	0.5853625
215	0xbe28df84	-0.16491514
216	0xbedc7829	-0.43060425
217	0xbe178a4c	-0.1479885
218	0x3f5b4304	0.8564913
219	0xbe2930ab	-0.16522472
220	0xbcf52c22	-0.02992827
221	0x3e44c06a	0.19214025
222	0x3d92b5e5	0.071636
223	0x3f0fb393	0.56133384
224	0xbe900c7b	-0.28134522
225	0xbe6e7e7e	-0.2329044
226	0xbe574387	-0.21021853
227	0xbe6bac76	-0.23015007
228	0xbe59d6d4	-0.21273357
229	0x3ed5153a	0.41617757
230	0x3f1e2af1	0.61784273
231	0xbd810fe9	-0.06301863
232	0xbe52c703	-0.2058373
233	0xbebd97ee	-0.37029976
234	0xbe08c830	-0.13357615
235	0x3d2466c6	0.040137075
236	0xbe95c124	-0.29248917
237	0x3ea18a25	0.31550708
238	0xbe1b5526	-0.151692
239	0x3dd0972b	0.10185083
240	0x3dcdd770	0.10050857
241	0xbec28194	-0.37989485
242	0xbeb30961	-0.34968093
243	0xbec6b178	-0.38807273
244	0xbe02283a	-0.12710658
245	0x3dd59dc2	0.104304805
246	0xbe5d89b4	-0.21634561
247	0xbeb3df6b	-0.35131392
248	0xbe6992e3	-0.22809939
249	0xbf0304b6	-0.51179063
250	0xbef37377	-0.4754903
251	0x3dbe1237	0.09280818
252	0xbf0c1947	-0.5472607
253	0x3e282612	0.16420773
254	0xbe867b03	-0.26265725
255	0xbf063ecc	-0.5243957

hidden_layers.3.bias f4 [128]
0	0x3eb4d508	0.3531878
1	0xbe3bb4d6	-0.18330702
2	0xbec0d8e2	-0.37665468
3	0xbe9ff417	-0.31240913
4	0x3f47169c	0.77768874
5	0x3ef0ce13	0.47032222
6	0x3f1f87b7	0.6231646
7	0xbd7f666f	-0.062353548
8	0xbdd4c759	-0.10389585
9	0xbc99c36b	-0.01876994
10	0x3e79a97b	0.24381058
11	0x3e183afd	0.14866252
12	0xbe73d5da	-0.23812047
13	0x3e9bf25e	0.3045835
14	0x3e946e68	0.28990483
15	0x3ef51811	0.47869924
16	0xbe53d2cc	-0.20685881
17	0xbeb1dc78	-0.34738517
18	0xbe96ea7f	-0.2947578
19	0xbe3ac2e9	-0.18238415
20	0x3ca0769a	0.019587804
21	0xbec8db41	-0.39229777
22	0xbeacf18f	-0.33778045
23	0xbde87e75	-0.11352245
24	0xbda89f8e	-0.08233558
25	0xbe45e977	-0.19327341
26	0x3d16e7bc	0.036842093
27	0xbdb00231	-0.08594168
28	0xbe2e5007	-0.17022716
29	0xbe92ca3d	-0.2866992
30	0xbe760379	-0.24024762
31	0xbe92c122	-0.28662974
32	0xbe6db112	-0.23212078
33	0xbe40e2e1	-0.18836547
34	0x3ec188aa	0.3779958
35	0xbdd8433c	-0.10559699
36	0xbdd4ebd7	-0.103965454
37	0xbe9eb957	-0.31000778
38	0xbe28c4b5	-0.16481288
39	0xbeef5a60	-0.46748638
40	0xbedf23e5	-0.43582073
41	0x3ecaa780	0.39580917
42	0xbd63da1a	-0.05562792
43	0xbea3fc60	-0.32028484
44	0xbea84eae	-0.32872528
45	0x3e3f5b20	0.18687105
46	0xbe8610aa	-0.2618459
47	0x3e762ada	0.24039784
48	0xbdbfa12c	-0.09356913
49	0xbe014db3	-0.12627296
50	0x3e337c25	0.17527826
51	0xbd4f663d	-0.05063461
52	0xbe8def02	-0.2772141
53	0xbdcd7fcd	-0.10034142
54	0xbe8089aa	-0.2510503
55	0x3e9a4c25	0.3013622
56	0x3f0a4d55	0.5402425
57	0xbec7f836	-0.39056557
58	0xbe18cde8	-0.14922297
59	0xbe5306a5	-0.20608003
60	0x3ddbffc2	0.10742141
61	0xbe97d562	-0.29654986
62	0xbec0e80c	-0.37677038
63	0xbe077044	-0.1322642
64	0xbe843749	-0.2582343
65	0x3f0b2149	0.54347664
66	0x3e5a0fdc	0.21295112
67	0xbeaf48b2	-0.3423515
68	0xbe9c9dc0	-0.30589104
69	0xbec1b894	-0.37836134
70	0xbe0fa247	-0.14026748
71	0x3eeeacc4	0.46616185
72	0xbc6386b8	-0.0138871
73	0xbe8f57c0	-0.27996635
74	0xbe6745b2	-0.2258518
75	0xbe1dc236	-0.15406117
76	0xbd09b28e	-0.03361755
77	0xbc332187	-0.0109332865
78	0xbeeea27c	-0.4660834
79	0xbe3dbe1c	-0.18529552
80	0x3e31da42	0.17368415
81	0xbdd24201	-0.102664955
82	0xbe9f2433	-0.31082305
83	0x3d8f04ce	0.06983338
84	0x3daeeb74	0.08541003
85	0x3e9de576	0.30839127
86	0xbecf8712	-0.40532738
87	0xbeb88b3d	-0.3604373
88	0xbeac6796	-0.3367278
89	0xbebc26cc	-0.3674835
90	0x3f305c98	0.68891287
91	0x3e96be7e	0.2944221
92	0x3f0d82e2	0.55277836
93	0xbd99fefc	-0.075193375
94	0x3f1b6721	0.6070424
95	0x3ec0f8a9	0.37689713
96	0xbdfc94a9	-0.12333042
97	0xbe42fc4d	-0.19041558
98	0xbe3f9dd8	-0.18712556
99	0xbe367b81	-0.1782055
100	0x3de7cfbb	0.11318918
101	0x3f0f01fe	0.55862415
102	0x3da095ac	0.07841048
103	0xbed6282f	-0.41827533
104	0xbe5ab34b	-0.21357457
105	0x3f34a0a8	0.7055764
106	0x3e83ae2c	0.2571882
107	0xbda9dca9	-0.08294041
108	0xbedb6453	-0.4284998
109	0x3eed78af	0.46381137
110	0x3eb4196e	0.3517565
111	0x3ee40dee	0.44541878
112	0x3eb6a48a	0.35672408
113	0xbdb4fb46	-0.08836989
114	0xbe6f734a	-0.23383823
115	0x3e0c3f92	0.13696125
116	0xbd07d412	-0.03316123
117	0xbe875969	-0.26435402
118	0x3c547ad4	0.012968738
119	0xbe83afd5	-0.25720087
120	0xbe7f22e9	-0.24915661
121	0xbe576944	-0.2103625
122	0x3de89e82	0.11358358
123	0xbe40a4bd	-0.18812843
124	0xbe31dec6	-0.17370138
125	0xbe0fbbb7	-0.14036451
126	0xbd740904	-0.05957891
127	0xbd8d1de3	-0.06890466
