models/discharge/Hasil eksperimen Sukabumi ML 1 forecast 8 best.pth (torch, 407624 bytes, 17 tensors)

encoder.lstm.weight_ih_l0 f4 [256, 1]
000000 1c f9 cc 3e 36 c2 a1 3e 20 a2 a7 3e 32 c0 2f 3f
       0.40033805 0.31593484 0.3274088 0.6865264
000010 89 4c 2c 3e 06 7c 8d 3d b4 5b 11 3f 5a 65 37 be
       0.16826071 0.06908421 0.5678055 -0.17909756
000020 c4 ae 5c 3e 5a 90 8d 3e 06 52 9f 3e 18 a5 2b bd
       0.21551043 0.27649194 0.31117266 -0.041905493
000030 eb b7 ae 3e b8 7f a5 be d0 aa 0e 3f 0d 46 a9 3e
       0.34124693 -0.32324004 0.5572939 0.33061257
000040 fd 35 aa be 70 8d 0c 3f d6 65 28 3f 99 dd d2 3e
       -0.33244315 0.54903316 0.6578039 0.4118469
000050 76 56 92 3e 33 4b 5c 3e 38 f7 ed 3e 4b 1e 9c 3e
       0.2858159 0.21513061 0.46477675 0.30491862
000060 9f e3 c7 3e 36 eb 2a 3f d4 bf 1e bf 03 8d 2d 3f
       0.3904085 0.66765153 -0.62011456 0.6779329
000070 52 a4 a5 be a1 f4 97 be b8 96 97 3e e0 22 f6 3e
       -0.3235193 -0.29678825 0.29607177 0.48073483
000080 1c 6e 21 3f 6a f3 5c bf a2 bf e4 3e e7 7d b0 be
       0.6305864 -0.8630892 0.44677454 -0.34471056
000090 09 ed 11 3f 33 27 27 bf 69 51 5a be 42 19 dd be
       0.5700231 -0.6529419 -0.21320118 -0.43183333
0000a0 57 93 04 3f 8d 8d 7a bf bf 6d 35 bf d6 63 c8 be
       0.5178732 -0.9787224 -0.70870584 -0.3913867
0000b0 92 7c a6 3e 6f 5a 1c 3f a3 03 d8 3e 45 42 1b 3f
       0.32516915 0.6107549 0.42190275 0.60647994
0000c0 29 df 96 3e 1d 0d 9e 3e 39 ba 7f 3e 8c 18 c8 be
       0.29467133 0.3086938 0.24973382 -0.39081228
0000d0 40 0a 0b 3f 6e 89 6e 3e 66 15 9b be e9 9d 73 3e
       0.54312515 0.23294613 -0.30289763 0.23790707
0000e0 db a4 21 3f 03 dd 13 3f 21 3d c5 be 5e 0d 79 3d
       0.63142174 0.5775911 -0.385232 0.060803764
0000f0 01 9b 91 be 10 6b 20 3f e6 37 9e 3e 22 76 35 3f
       -0.2843857 0.62663364 0.30902022 0.7088338
000100 89 e3 99 3e 4b 59 b4 3e a6 d5 ea 3e 0c 36 6c 3e
       0.30056408 0.35224375 0.45866126 0.23067492
000110 16 ab ea 3e 78 53 af 3e e7 2e 8f 3e 91 46 ac be
       0.45833653 0.3424337 0.2796547 -0.33647588
000120 69 3b ce 3e da e0 a2 3e 47 5f a0 3e 9f 21 a1 be
       0.402797 0.31812173 0.3132269 -0.31470963
000130 06 52 ba 3d 3e ff f8 3d dc b1 c6 3d 45 35 ac 3e
       0.09097676 0.121580586 0.09701893 0.3363439
000140 93 3b 04 bf 76 9a e1 3d 78 51 e2 3e f3 0a 5e bf
       -0.51653403 0.11015789 0.4420278 -0.8673546
000150 b1 95 18 3f f9 f5 b2 3e 4e 54 fd 3e 88 df 8b 3e
       0.5960341 0.34953287 0.49478382 0.27318978
000160 63 a7 70 3d c4 c2 22 3f 6f 30 d3 3c 74 57 36 3f
       0.058753382 0.6357844 0.02577993 0.7122719
000170 64 6d 96 be 4e f8 4f be 07 a7 44 3e da e3 e7 3e
       -0.29380333 -0.20309564 0.19204341 0.45291024
000180 bd e2 32 3e db 0c 24 be 47 53 82 3e fb 37 98 be
       0.17469306 -0.16020529 0.2545416 -0.2973021
000190 ef 7e a0 3d fb 26 d0 be 05 25 c7 be 04 20 4d 3f
       0.07836711 -0.4065474 -0.3889543 0.80126977
0001a0 d2 03 8a 3e 38 0d f7 3e 5b 46 41 be 29 ee f9 3e
       0.2695604 0.48252273 -0.18874495 0.48814514
0001b0 22 3f be 3e e4 2f 8f bf 2f f5 1b 3f 16 a0 48 3e
       0.37157542 -1.118649 0.60920995 0.19592318
0001c0 ee 0b bc 3e 5b 2d 2d 3f 08 a0 44 3e 8a f8 f5 be
       0.36727852 0.6764733 0.19201672 -0.48041183
0001d0 e6 20 25 3e 88 46 18 3f 2e 21 c6 be b4 d1 8c 3e
       0.16125831 0.5948262 -0.3869719 0.2750374
0001e0 ee f4 20 3f 35 66 a4 3d e6 bb ab be 03 b6 94 3e
       0.62873733 0.08027307 -0.33541793 0.29045114
0001f0 ac df a1 be 02 43 a3 be 39 86 fc 3e 71 31 0e 3f
       -0.3161596 -0.3188706 0.49321154 0.5554419
000200 ef fc 19 3f a6 9f d6 3e a2 13 e0 3e 33 28 ca 3e
       0.6015157 0.41918677 0.4376498 0.39483795
000210 a6 71 b3 3e bd 1c b8 3e 0e e4 e4 be 20 cf c0 be
       0.35047644 0.35959426 -0.44705242 -0.37658024
000220 1e 36 c4 3e ab a5 a6 be 9e 33 d9 be 84 17 ca 3e
       0.38322538 -0.3254827 -0.42422193 0.39471066
000230 31 a4 c3 3e 70 b3 bc be f4 ae c7 be fa e4 d7 3e
       0.38211206 -0.3685565 -0.39000666 0.42166883
000240 cb 3d 7c be bf 99 09 3f 4d 22 b5 be ba 77 91 be
       -0.24632947 0.5375022 -0.35377732 -0.28411657
000250 0a a1 db 3e a3 ee 9c 3e 6b 3f cc be 5e cf 89 3e
       0.428963 0.30650815 -0.39892134 0.2691602
000260 f5 b8 b7 3e fd e6 97 be 2e 01 f5 bd d8 39 aa be
       0.358833 -0.29668418 -0.11963116 -0.33247256
000270 93 f2 b8 3e fb d4 97 be df c3 b3 3e 2f 80 d8 be
       0.3612257 -0.2965468 0.35110375 -0.42285296
000280 6f 3d ce 3e 1b d4 95 be 9f 99 1a 3f 98 fa 0d 3f
       0.40281245 -0.29263386 0.6039066 0.554605
000290 d2 91 b4 be 17 9a a6 3e 0b 83 c3 be 2f a1 b8 be
       -0.35267502 0.32539436 -0.38185915 -0.36060473
0002a0 37 33 bf 3e 0b 17 7c be 1e 20 c7 3d 04 65 18 3f
       0.3734376 -0.24618165 0.09722923 0.5952914
0002b0 4b ef ee be a3 de b0 be a1 d0 18 bf 86 45 c6 3e
       -0.4666694 -0.34544858 -0.5969334 0.38724917
0002c0 d8 c4 e4 be 81 3b 08 bf e0 59 f7 be 1f 78 a5 be
       -0.4468143 -0.53215796 -0.48310757 -0.32318208
0002d0 1d 35 ba 3e 35 62 1b 3f 1d fc cb 3e 2b 10 90 3e
       0.36368647 0.6069673 0.39840785 0.28137335
0002e0 61 35 e1 3e b0 8d 71 be bd f1 a9 3e b7 f1 d3 3e
       0.43986037 -0.23589206 0.33192244 0.4139535
0002f0 c9 71 b4 be 93 92 af 3e dd a5 e2 be 23 31 c1 3e
       -0.3524306 0.34291515 -0.4426717 0.377328
000300 6d c8 9e 3c c9 82 e2 3e 34 4a 2f 3f 7b aa bb be
       0.01938268 0.44240406 0.684726 -0.36653504
000310 9d 86 9a 3e 0c 05 bd 3e df 84 98 bd 2a 85 c8 be
       0.30180827 0.36917913 -0.07447218 -0.39164096
000320 8e 3b 24 be 59 1b 44 bd 9e 85 db be 0d 24 08 bf
       -0.16038343 -0.047877643 -0.4287538 -0.5318001
000330 80 e2 be be 19 8b 8b be 9f 99 85 be db fc d1 3e
       -0.3728218 -0.2725456 -0.26093766 0.41013226
000340 07 44 a6 3e f5 47 f9 3d 91 21 9f 3e 61 51 e0 be
       0.32473776 0.12171928 0.31080297 -0.43812087
000350 72 4c 30 be 8a 17 c4 3e 2a cc d7 3e ac de 9e be
       -0.17216662 0.3829921 0.42147952 -0.3102926
000360 95 a6 3d 3f 91 7c 8f be 27 1b b8 3e b7 c6 c2 3e
       0.7408231 -0.28024724 0.35958216 0.38042232
000370 9a d7 f7 bb e3 d2 a9 be 6b 8e 8b be 7a 49 92 be
       -0.0075635435 -0.33168706 -0.27257094 -0.28571683
000380 cc a8 e9 be d0 fe e4 be 9f a3 1e 3f 7b 0f 25 3f
       -0.45636594 -0.44725657 0.61968416 0.64476746
000390 3b 93 6b be d9 46 d1 3e b7 98 2f 3f 83 9a e2 3d
       -0.23005383 0.40874365 0.685924 0.11064627
0003a0 18 1f 2d be 5f 1f 0a bf 31 26 37 3e 2f 11 5b 3f
       -0.16906393 -0.5395412 0.17885663 0.85573095
0003b0 d5 cc e5 be b9 9d 39 3f a2 df c0 3d 0d f1 05 bf
       -0.44882837 0.7250629 0.094176546 -0.5232094
0003c0 6e 95 ea be ec e6 39 3f 23 55 ab be 36 0b 8c 3e
       -0.4581713 0.72617984 -0.33463392 0.27352303
0003d0 46 67 c5 be 42 a6 2f 3f 3a ad 13 3f f1 5c e7 be
       -0.38555354 0.68613064 0.576862 -0.45188096
0003e0 37 b6 3f 3f 3b 19 ba be 45 e4 10 bf 97 86 48 3f
       0.7488741 -0.36347374 -0.5659831 0.7833037
0003f0 c1 c5 24 3f a9 d0 30 3f c4 b9 8d be 6f 1e a7 3e
       0.6436425 0.6906839 -0.2768079 0.32640406

encoder.lstm.weight_hh_l0 f4 [256, 64]
000000 86 91 b6 3e f7 1c 97 40 4c 99 f5 3f d7 1e c1 be
       0.356579 4.7222857 1.9187407 -0.3771884
000010 d2 52 d4 3e 85 ab 1c 40 2c 6d 05 bb 8a 3d 7f 3e
       0.41469437 2.4479687 -0.002035926 0.24925819
000020 92 82 e9 be 14 d8 85 bf fb 0f 05 bf eb 9d b2 be
       -0.4560743 -1.0456567 -0.5197751 -0.34886107
000030 6b aa 89 be 4a c8 b2 3e f6 a2 1a 3e c9 e8 71 be
       -0.2688783 0.34918433 0.15101227 -0.23623957
000040 c8 0c 2a 3d a6 e1 a5 3b cb fd 9a bd 71 3c 92 bf
       0.041516095 0.0050623 -0.075679384 -1.1424695
000050 de 35 f8 3e 61 39 fc 3f a9 61 8c 3d ad ae bb be
       0.48478597 1.9705011 0.06854565 -0.36656705
000060 f8 45 03 40 b4 7c 86 be 47 64 0a 3f 25 7a c7 be
       2.0511456 -0.26267016 0.5405926 -0.38960376
000070 ba b3 8c be a2 92 e6 3d 31 3e fd be df a5 9d 3e
       -0.2748087 0.11258437 -0.4946151 0.30790612
000080 da ff 09 be 29 6e af bd ee ca 3b bc 94 cf 5f be
       -0.13476506 -0.08565933 -0.011461956 -0.21856529
000090 b8 ca c2 3e 7a f5 78 be 48 8a b3 be 90 ae 46 bf
       0.38045287 -0.24312392 -0.35066438 -0.7761011
0000a0 94 71 b1 ba ad 7b 70 3d a2 df 0f 3e 7e f7 c5 3f
       -0.0013537877 0.058711696 0.14050153 1.5466154
0000b0 10 eb da 3e 4a 8f 9d bf 1e e9 06 40 fe 17 b2 be
       0.42757463 -1.2309353 2.1079783 -0.3478393
0000c0 e7 ba 59 3e 86 fc 0b bf 9e cd 94 bf 7b 9d 2e 3d
       0.21262704 -0.54682195 -1.1625249 0.042630654
0000d0 a0 54 00 3f 04 a3 51 be a3 d3 00 bf 6b 98 34 3f
       0.5012913 -0.20472342 -0.5032293 0.7054507
0000e0 cd 56 a2 3f ce a5 f5 3e 6c 7a 43 be e4 83 4b 3f
       1.268274 0.4797806 -0.19089669 0.79498124
0000f0 91 2e fa be 05 82 64 3f c5 95 b9 bd 62 ae 97 3f
       -0.48863652 0.89260894 -0.090617694 1.1850092
000100 ed be 12 3f 2d 0b 8b 3e be 33 2b 3f 06 25 02 3e
       0.5732258 0.27156964 0.6687583 0.12709436
000110 12 34 c7 bd 95 20 69 3e 75 58 08 bd d8 7f 75 bd
       -0.097267285 0.22766335 -0.033287484 -0.059936374
000120 d4 27 bd 3e 79 97 97 bd 31 3f d4 bc 1e 62 50 3e
       0.3694445 -0.07401938 -0.025909038 0.20349929
000130 09 a4 26 3e 08 c3 1c be b0 7f a6 bd dc 1c 64 3e
       0.16273512 -0.15308774 -0.08129823 0.22276634
000140 83 74 16 bd ee 3d 9d 3e 8f 16 b8 be 77 bd 86 be
       -0.036732208 0.3071131 -0.3595471 -0.26316425
000150 a0 89 ad 3e ba 24 47 3f 81 95 83 3d 60 c1 90 3e
       0.33894062 0.77790415 0.06425 0.28272533
000160 5b 2e 84 3f 85 1b 67 be 84 a4 c8 be 5e 46 0b bd
       1.0326647 -0.22569092 -0.39188015 -0.034002654
000170 4a 5e ec 3d 70 87 32 be d6 d3 0b 3f 8e ed ec bd
       0.11541422 -0.17434478 0.5462011 -0.115687475
000180 63 34 4e 3d 29 bb a4 bd ef 19 24 3f 62 b9 db bb
       0.05034293 -0.080435105 0.6410207 -0.006705449
000190 3b f6 a3 3b 96 b0 0e 3e 90 14 d9 be 34 2e e1 bd
       0.005003718 0.1393455 -0.423985 -0.10995141
0001a0 59 1b f1 bd ed bd 10 3e bc 3e 3c bd 0e d8 50 3f
       -0.11772794 0.14134951 -0.045958266 0.81579673
0001b0 c2 a1 fe bd 3e 81 32 be 7e b5 20 3e 70 a9 03 3e
       -0.124331966 -0.17432114 0.15694234 0.12857604
0001c0 a8 7f 26 be ca 70 ab be a7 0a d3 bd eb 65 08 be
       -0.16259634 -0.3348449 -0.10304766 -0.13320129
0001d0 f8 02 86 3e f5 83 ca 3e bd 60 1b 3e 80 98 4b 3e
       0.2617414 0.395538 0.15173621 0.19882393
0001e0 b8 5c a2 3d 08 68 7c be 56 ce 09 3e 08 13 cb 3e
       0.07927841 -0.2464906 0.13457617 0.39662957
0001f0 3e 9b a7 be a3 9a 6f 3e 3a 7d 69 3d e1 07 c6 3e
       -0.32735628 0.23398833 0.05700419 0.38677886
000200 5d bf 65 3f ed 3d 68 40 35 6b 81 be 91 66 ea be
       0.8974512 3.6287796 -0.25277105 -0.45781377
000210 51 29 9a 3e 82 9e 53 40 6c 52 04 3f 96 d3 36 bc
       0.30109647 3.3065495 0.51688266 -0.011158844
000220 24 38 b8 be dd 53 1a bf 1e 3e ed be d6 55 65 bd
       -0.35980332 -0.60284215 -0.46336454 -0.055990063
000230 6a 1a f1 be c4 3c de 3e 2d 21 ee 3e 8b 9f ac 3e
       -0.47090465 0.43405735 0.46509686 0.33715472
000240 ae 3e a8 3e a3 80 82 bd e0 a3 3d be 23 35 a4 bf
       0.3286032 -0.06372192 -0.18519545 -1.2828716
000250 25 ba 0b be 97 16 fb be 01 ee 86 3e 9c ad 57 bf
       -0.13645227 -0.49040672 0.26353458 -0.8424928
000260 09 d3 4d 40 25 c0 48 c0 34 f2 5e 3f 23 c6 53 bf
       3.2160056 -3.1367276 0.8708832 -0.8272421
000270 0e 3c 11 bf 64 99 3c 3e 22 db e9 be 53 33 8f 3e
       -0.5673226 0.18417889 -0.45674998 0.27968845
000280 59 a4 31 3d 5f 92 a0 3d f9 30 e0 3c e2 f2 5c bf
       0.043369625 0.07840418 0.027367102 -0.8630811
000290 84 1c e7 3e e0 38 af 3d 15 55 9b be 43 73 b2 bf
       0.45138943 0.0855577 -0.3033835 -1.3941425
0002a0 27 85 99 bf b8 eb 9c bc 5e 35 4f bd 65 8c 82 40
       -1.199376 -0.019155368 -0.050588004 4.079638
0002b0 4a 37 5f 3f b5 3e af bf eb 81 fc 3f 8b ca ef be
       0.8719374 -1.3691012 1.9727148 -0.46834216
0002c0 2f ac 19 be 93 8b 0a 3e 62 e8 0d bf a3 58 74 be
       -0.15007089 0.13529806 -0.55432713 -0.23861937
0002d0 ff 29 9d bf 20 5e bc 3d b3 1e 05 bf 2d de 12 3f
       -1.2278441 0.091976404 -0.5199997 0.57370263
0002e0 20 b1 e9 3f 30 5f c6 3e 52 02 5a 3d de 4c ec bd
       1.8257179 0.38744497 0.05322487 -0.11538099
0002f0 0b 71 63 3f ef 9e 9e be 48 02 85 3e f9 0a a1 3f
       0.88844365 -0.30980632 0.25978303 1.2581474
000300 c8 5f 2a be 34 00 1b 3e fc d0 45 3e 00 16 4d 3e
       -0.166381 0.15136796 0.19318002 0.20027924
000310 ec f2 57 be fb 9b 0a be b1 81 5c be 86 9c 45 be
       -0.21088761 -0.13536064 -0.21533848 -0.1929799
000320 df 3c 7f 3e 2c 6c d7 bc 76 cc 14 3d 71 99 89 3e
       0.24925564 -0.026296698 0.0363278 0.2687488
000330 91 48 6c 3e 31 86 8f bd a7 2b 0a be e7 6d 37 be
       0.23074557 -0.07008017 -0.13493215 -0.17913018
000340 52 ec 80 3d 62 f8 0f 3e 16 fb 14 bd d1 c2 69 3e
       0.062950745 0.14059594 -0.036372267 0.22828223
000350 31 a4 a6 3e 0b 0f ab 3d 48 c3 32 3c f3 45 7e 3e
       0.32547143 0.083524786 0.0109108165 0.24831371
000360 1a f5 b6 bc 45 20 09 be cd 62 36 be da c7 1a 3e
       -0.02233367 -0.13391216 -0.17811127 0.151153
000370 90 f2 0f 3e 2f 51 59 be e7 68 82 3e 69 77 65 be
       0.14057374 -0.21222375 0.2547066 -0.22408833
000380 a0 4b 86 3e 6b 08 85 3d 79 f0 f0 3d 9e a4 82 3e
       0.26229572 0.06495746 0.117646165 0.25516218
000390 57 fb 0f be 7c 79 b1 3d d8 2f 8b be 67 e3 84 bd
       -0.14060722 0.086657494 -0.2718494 -0.06488686
0003a0 81 14 ff 3d fb b5 40 3e e9 8b 11 bd e5 84 bc be
       0.12455083 0.1881942 -0.03553382 -0.3682014
0003b0 4a 73 03 be b9 74 cc 3e e8 46 aa bd db c6 7e 3e
       -0.12836948 0.39932802 -0.083143055 0.24880545
0003c0 02 da 5f be ec fb f2 bd cb fa 76 3d ca e6 c8 bd
       -0.21860507 -0.118644565 0.06029777 -0.098096445
0003d0 43 40 8e 3e 68 cd 3f 3d b5 e5 61 3e 3e 89 db bd
       0.27783403 0.04682675 0.22060283 -0.10719536
0003e0 7e 49 53 be da b2 98 be 61 87 9f 3d 73 c3 96 bc
       -0.20633504 -0.29823953 0.07789493 -0.018403744
0003f0 c2 7f 07 be 3c 2a b2 3e 58 5b 24 3e f2 27 1f 3e
       -0.1323233 0.34797847 0.1605047 0.15542582

encoder.lstm.bias_ih_l0 f4 [256]
000000 6a 1d 0c 3f 6d f9 8b 3e 3a 7c 04 3f 5f 76 cf 3e
       0.5473238 0.27338734 0.51752055 0.40519997
000010 9f 00 9e 3e ae da 59 40 d4 b3 23 3f ab c7 32 bf
       0.3085985 3.4039721 0.6394627 -0.6983592
000020 89 11 22 3e 29 14 35 3f 8b 82 25 3f a4 39 6e bf
       0.15827002 0.70733887 0.6465232 -0.930567
000030 62 08 4e 3e c4 dd 86 be 44 cc 9b 3e 9e 67 df 3d
       0.20120385 -0.2634107 0.3042928 0.10908435
000040 73 fc 46 bf be 25 08 3f a1 7c 3b 3f a0 fd a4 3e
       -0.77728957 0.5318259 0.73237044 0.3222475
000050 4d f4 21 3e 77 a3 71 bd 42 94 8d 3d e0 bd d7 3e
       0.1581585 -0.058993783 0.069130436 0.4213705
000060 59 b4 31 3f 7f 15 6b 3f ca c0 b8 bf 89 14 25 3f
       0.69415814 0.91829675 -1.4433835 0.6448446
000070 e9 5e 29 be 5e e7 91 3c 2c af 3f 3e 22 b7 30 3f
       -0.16540112 0.01781052 0.18719167 0.6902944
000080 3d c4 e4 3e dc a5 f7 3e 97 cc 05 bf 70 d3 f2 be
       0.44680968 0.48368728 -0.52265304 -0.4742694
000090 b0 e9 df 3e 8a da 32 bf 45 8b 54 bf 3e 7d 19 bf
       0.43732977 -0.69864714 -0.8302501 -0.5995673
0000a0 4d 96 31 3f cc 7d 82 bf 1e da 4e bf be 24 8c 40
       0.69369966 -1.019464 -0.8080157 4.379485
0000b0 74 ba 47 3e 63 67 88 3f 12 3a 66 3e 15 42 e5 3e
       0.1950472 1.0656551 0.2248309 0.4477698
0000c0 07 81 11 be af 64 25 3e e4 b9 3d 3f 7f 51 25 bf
       -0.14209376 0.16151689 0.7411177 -0.6457748
0000d0 2c 2b 27 3f 0d d5 95 3f 81 39 97 bf 6a 1d 1e 3e
       0.6530025 1.1705643 -1.1814424 0.15440908
0000e0 a4 8e 60 3f 65 a9 8d 3e 2a 58 0c be 38 f0 f0 3f
       0.8771765 0.276683 -0.13705507 1.8823309
0000f0 65 13 81 bf 0f eb ab 3f 5c 03 94 3e 47 de 51 3f
       -1.0084044 1.3431109 0.28908813 0.81979793
000100 12 d9 ff 3e c8 a8 b3 3e 99 5e 1f 3f 09 99 90 3e
       0.499703 0.35089707 0.6225372 0.28241757
000110 cd a0 0b 3f 29 a7 3f 3f 15 0b ce 3e 87 ee c3 be
       0.5454224 0.7486444 0.4024283 -0.3826792
000120 0a ae 82 3e 30 80 9c 3e d8 c6 bc 3e 89 17 c3 be
       0.25523406 0.3056655 0.36870456 -0.38103893
000130 d9 31 e9 3d b9 48 c4 bc 32 b6 50 3e dd 62 84 3e
       0.11386461 -0.023960458 0.20382002 0.25856677
000140 b8 b9 b0 be f5 97 ca 3f cf 80 1c 3f 51 a8 01 bf
       -0.34516692 1.5827624 0.61134046 -0.50647455
000150 e5 fb 0f 3f 4d a8 3a 3f 8d 6a 20 3f 40 15 95 3e
       0.56243736 0.72913057 0.62662584 0.29117775
000160 07 62 87 40 9e db c8 3e 56 e3 af be 5f 42 ae 3e
       4.230716 0.39230055 -0.3435313 0.34035012
000170 f1 10 77 be 2d 29 a0 bd 31 bf 98 3d 2c e7 9e 3e
       -0.24127556 -0.07820354 0.07458342 0.31035745
000180 4f 20 a5 3c 05 6b fc 3d 4c 30 a9 3e 29 d6 2e bf
       0.020157008 0.123251 0.3304466 -0.6829553
000190 32 90 4d 3e f9 84 5a be e5 60 57 bf 12 52 16 3f
       0.20074537 -0.21339788 -0.84132224 0.5871898
0001a0 88 23 17 3e 1f ef f1 3e 84 42 0e be fc 60 2e 3f
       0.14759648 0.47252747 -0.13892561 0.68116736
0001b0 b8 16 00 3f ae e2 83 be e3 c9 88 3e b4 43 06 3e
       0.50034666 -0.2575888 0.26716527 0.13111764
0001c0 1b 00 32 3e 53 5f d2 3e 57 83 59 3e 7c e4 21 bf
       0.17382853 0.41088352 0.21241508 -0.63239264
0001d0 b9 51 8d 3e 1c 13 09 3f 76 4a b6 be e5 56 20 3f
       0.27601412 0.53544784 -0.35603684 0.6263259
0001e0 3b 1f 31 3f b4 18 55 3e 8f f7 ab be d5 07 98 3e
       0.6918828 0.20810205 -0.3358731 0.29693475
0001f0 cd 60 c7 be ec c5 cc 3c 0f 1c b4 3e 6a e0 db 3e
       -0.3894104 0.02499672 0.35177657 0.42944652
000200 cc 7b 3d 3f 9e fe 94 3e b3 36 99 3e ac 24 8c 3e
       0.74017024 0.29100507 0.29924545 0.27371728
000210 92 44 b1 3e 9e d0 dc 3e 00 cf f6 be d0 b9 48 be
       0.34622627 0.43127912 -0.48204803 -0.19602132
000220 ee 94 39 3e b1 a6 14 bf 37 86 08 bf 4d 3c 0e 3e
       0.18123218 -0.5806685 -0.53329796 0.1389019
000230 02 32 99 3e ce 33 4c be ff c6 de bd ea 30 e3 3e
       0.29920965 -0.19941637 -0.10877799 0.44373256
000240 00 28 e6 be 5f 61 a7 3e 50 97 3e be 48 a2 8a bf
       -0.44952393 0.32691476 -0.18612409 -1.0830774
000250 64 4f 5b 3e 6d a9 10 be 00 41 c2 be b6 c5 b4 3e
       0.21417004 -0.14127131 -0.37940216 0.3530709
000260 48 cb 2b 3e 56 8a 8d be 03 31 18 bf 23 c7 8d be
       0.16776764 -0.27644604 -0.59449786 -0.27690992
000270 06 9b c4 3e d4 86 a0 be 02 59 98 3e 51 74 e9 be
       0.38399523 -0.31352866 0.29755408 -0.45596555
000280 77 6c 49 3e 54 1f 1a be 6a d3 c7 3e ed 9d 3d 3e
       0.19670282 -0.15051013 0.39028484 0.18517275
000290 1e 90 62 be c9 67 42 3d f0 07 44 be f1 ed de be
       -0.22125289 0.04746226 -0.19143653 -0.4354091
0002a0 02 bb 11 3e f8 78 e3 be 2e 3d c6 3d 46 2f 19 3f
       0.14231494 -0.4442823 0.09679638 0.5983776
0002b0 c5 da ed bc d7 20 db bf 1e 07 12 bf dc f1 89 3e
       -0.029034982 -1.7119397 -0.5704211 0.26942337
0002c0 4c 63 15 be 45 c5 01 bf 0b e3 54 be 76 be a9 be
       -0.1458866 -0.50691634 -0.20789735 -0.33153123
0002d0 7a 6f e0 3e 0f 09 f4 3e ba 3d d4 bc 2d 78 b9 3e
       0.4383505 0.4766316 -0.02590834 0.362245
0002e0 3d 93 17 3f ad 0e fd be d7 13 84 3e 8f b4 20 3f
       0.5920904 -0.4942526 0.25796387 0.6277551
0002f0 34 5b 40 be 63 82 ae 3e 7a 54 12 bf 84 f3 a6 3e
       -0.18784791 0.34083852 -0.5716015 0.32607663
000300 cb 5c 76 40 13 cb d1 3f 21 f3 6f 3e 4e 4d 93 be
       3.8494136 1.6390098 0.2343259 -0.28769916
000310 fe b2 72 bd 34 81 be 3e 6a 1c 1e c0 85 d2 8c be
       -0.05925273 0.3720795 -2.4704843 -0.27504364
000320 83 7d bf bf 3f 3c f7 bf 8c 2f 38 bf 26 7c d9 be
       -1.4960178 -1.9315261 -0.7194755 -0.4247753
000330 93 4f f4 be a6 88 a4 bf 45 bf 19 c0 98 ea ac 3e
       -0.4771696 -1.2854202 -2.4022992 0.3377273
000340 d7 83 e6 be 4f ee 03 3f 8c 15 3f 3f c0 a4 10 bf
       -0.4502246 0.51535505 0.7464225 -0.5650139
000350 e1 f3 e9 3f bb 47 1d be 5a 2f 29 3f 28 79 d6 3d
       1.8277551 -0.15359394 0.6608788 0.104723275
000360 1b e4 3b 3f 90 3a e6 3f 7c 7e bf 3e 26 d9 7d be
       0.73394936 1.7986622 0.37401187 -0.24789867
000370 57 8b 97 c0 0b 34 c1 bd a7 c2 c9 bf d5 9f 2b bf
       -4.7357593 -0.094337545 -1.5762528 -0.6704076
000380 ce 5f 68 bc a0 fd f6 be 9d 3d 18 3f ba db 30 3f
       -0.014182998 -0.48240376 0.59469014 0.69085276
000390 04 92 23 bf 4d ba 12 3f 95 b1 10 3f 8c 7a 40 40
       -0.6389468 0.5731552 0.5652097 3.0074797
0003a0 4d 8e 15 be 75 55 29 bf cb c3 23 3e ca 3f 71 3f
       -0.14605065 -0.6614602 0.15992658 0.9423796
0003b0 c5 f8 1d bf 73 42 3b 3f 25 96 b4 3e 36 43 96 be
       -0.6170772 0.7314827 0.352708 -0.29348153
0003c0 ec 99 97 bf 79 8f 77 3f a3 46 4e bf 7d 13 55 3d
       -1.1843848 0.96703297 -0.80576533 0.05202054
0003d0 54 ea ce be e2 78 e0 3e da dc c4 3e 2c cb 9e bf
       -0.40413153 0.43842226 0.38449746 -1.2405753
0003e0 86 0a 1a 3f 3d 28 15 bf b5 92 4a bf a0 6d 1c 3f
       0.6017231 -0.58264524 -0.7913011 0.61104774
0003f0 55 e0 34 3f b3 4e 3a 3f 40 30 6a bf 46 30 03 40
       0.70654804 0.72776335 -0.91479874 2.0498214

encoder.lstm.bias_hh_l0 f4 [256]
000000 d9 9a 01 3f bb c6 61 3e 91 5f 0d 3f 1e d7 02 3f
       0.50626904 0.22048466 0.5522395 0.5110949
000010 93 43 8b 3e 9f 2d 58 40 5b f2 f4 3e 4c 99 4d bf
       0.27199993 3.3777845 0.47841153 -0.8031204
000020 a6 19 21 3e 65 db 4b 3f a1 fd 48 3f 6e c9 5f bf
       0.1573244 0.79631644 0.78512007 -0.8741673
000030 2a cc 0b 3e e9 f6 e0 be 21 31 f1 3e b6 60 92 3d
       0.13652101 -0.43938377 0.47107795 0.071473524
000040 3b e6 5b bf 43 ad 08 3f 90 3e 40 3f 2c bc a5 3e
       -0.8589818 0.53389376 0.7509546 0.32370126
000050 a0 0a 1d 3e ff d6 9a 3d 0b 42 15 3e 22 2c fd 3e
       0.15336084 0.075605385 0.14575975 0.49447733
000060 93 a2 26 3f 02 f0 54 3f 0d e5 bd bf c7 a5 e5 3e
       0.6509182 0.8317872 -1.4835526 0.4485304
000070 56 44 aa be 1a 30 47 bd d6 03 64 3e 02 c2 50 3f
       -0.3325526 -0.048629858 0.22267088 0.8154603
000080 59 fa e9 3e 29 dc 02 3f 11 18 a5 be 7f e5 d1 be
       0.45698813 0.5111719 -0.32244924 -0.40995404
000090 98 cd bc 3e 8b bd 39 bf cf 92 82 bf 5c d8 4c bf
       0.36875606 -0.72554845 -1.0201052 -0.8001764
0000a0 36 8a 01 3f 6b be 83 bf 42 73 42 bf 73 4e 90 40
       0.5060152 -1.0292486 -0.7595712 4.5095763
0000b0 2a 99 60 3e 1c c1 76 3f fe 2c 4b 3e 93 5c 87 3e
       0.21933427 0.9638841 0.19841382 0.26437816
0000c0 18 60 0c be 05 7b 52 3e 75 e5 17 3f 9f 5b 34 bf
       -0.13708532 0.2055474 0.593345 -0.704523
0000d0 97 42 1f 3f 22 a6 99 3f fe a0 8b bf 05 b5 89 3e
       0.62210983 1.2003825 -1.0908506 0.2689592
0000e0 55 1f 63 3f fd a6 e9 3e 94 44 c3 bd 39 3e fb 3f
       0.88719684 0.45635214 -0.095345646 1.9628364
0000f0 1e 33 89 bf 8c af b0 3f 85 ca ba 3e fa f0 35 3f
       -1.0718725 1.3803573 0.36482635 0.71070826
000100 d1 9c be 3e ad c1 66 3e 91 e0 de 3e 36 00 1d 3e
       0.37229016 0.22534819 0.43530706 0.15332112
000110 3f e2 09 3f a2 1b 0f 3f 6a b7 e6 3e 92 43 da be
       0.5386085 0.5590154 0.4506181 -0.42629677
000120 19 43 97 3e 6c ce 56 3e 10 7b 9f 3e 04 ce 14 bf
       0.2954338 0.20977181 0.31148577 -0.58126855
000130 81 8d 70 3d 62 5b ea 3d a4 71 6a 3d 12 d6 37 3e
       0.0587287 0.11443211 0.057237282 0.17952755
000140 6b d1 ec be 56 93 da 3f 85 64 dd 3e d7 d3 14 bf
       -0.46253523 1.7076213 0.43240753 -0.5813574
000150 ae de 14 3f 57 d6 52 3f 0b c5 19 3f 67 ee a8 3e
       0.5815228 0.82358307 0.6006629 0.32994387
000160 d0 63 87 40 4f f0 b8 3e 4d 02 5f be 00 3c bb 3e
       4.230934 0.3612084 -0.21778221 0.36569214
000170 5b 75 c7 be 1b 36 04 be 5a c5 2a 3e b1 b4 d7 3e
       -0.38956723 -0.12911265 0.16676846 0.42130044
000180 c2 a1 17 3e 52 6f 0f 3c e1 dc a8 3e 49 25 33 bf
       0.148078 0.008754568 0.32981017 -0.6997877
000190 7e 79 26 3d 44 72 91 be c1 7f 70 bf 50 b5 1b 3f
       0.040643208 -0.2840749 -0.93944937 0.60823536
0001a0 3d 37 5d 3e ba 86 af 3e 80 8a e9 bd c7 98 30 3f
       0.21603103 0.34282476 -0.1140337 0.6898312
0001b0 fc 0d b2 3e f4 0d e9 be d1 9f e1 3e cf 11 25 3d
       0.34776294 -0.45518458 0.44067243 0.040300187
0001c0 85 ea 8b 3e f4 d2 1a 3f da 77 8d 3e bc f2 ed be
       0.27327362 0.6047814 0.27630502 -0.46474254
0001d0 90 7b a5 3e f5 23 15 3f df 0f dd be 91 44 2f 3f
       0.32320833 0.5825799 -0.4317617 0.68464
0001e0 ea eb 0a 3f 63 d0 50 3e 8d 75 dd be 65 ee b9 3e
       0.54266226 0.20391993 -0.43253747 0.36314693
0001f0 98 68 df be d3 e3 4e bd d4 16 cd 3e dc d8 c3 3e
       -0.43634486 -0.05051024 0.4005648 0.38251388
000200 19 5c 16 3f 86 82 87 3e b0 96 88 3e fa 4e 3e 3e
       0.5873428 0.2646677 0.26677465 0.18584815
000210 33 83 c3 3e 19 ee c0 3e e5 37 00 bf 2c b0 92 be
       0.38186035 0.37681654 -0.5008529 -0.28650033
000220 c1 ca d3 3e a0 e5 03 bf f9 01 f6 be 16 ec 1f 3e
       0.41365626 -0.51522255 -0.4804838 0.15617403
000230 81 87 21 3e 33 4f ac be 2c 50 52 bd 97 db 01 3f
       0.15774347 -0.33654174 -0.05134599 0.5072569
000240 ac 9d 87 be bc c5 ac 3e 88 12 34 be 2f 2a 97 bf
       -0.26487482 0.3374461 -0.17585194 -1.1809748
000250 6a 9e 88 3e 70 85 88 bc 3d 5e e3 be 0b 02 a0 3e
       0.2668336 -0.01666519 -0.44407836 0.3125156
000260 9e 1b 55 3e 80 69 34 be 8b 10 25 bf 03 b3 87 be
       0.20811316 -0.1761837 -0.6447837 -0.26503763
000270 50 c6 23 3e 02 06 77 be 8f 5b cd 3e b1 ce 09 bf
       0.15993619 -0.24123386 0.40108916 -0.5383101
000280 41 0a 92 3d 11 6c eb bd 68 3d c6 3e d4 2b ae 3e
       0.07130862 -0.114952214 0.38718724 0.34017813
000290 d4 35 ac be e4 32 14 3d 98 7b 33 bb 80 36 a7 be
       -0.33634818 0.036181346 -0.00273869 -0.32658768
0002a0 6f 29 4d 3d a9 f8 70 be a2 77 ac 3c 62 77 20 3f
       0.050088342 -0.23532356 0.02105314 0.62682164
0002b0 32 b4 5c be 0b 29 f5 bf 8e 2d 3a bf d3 a3 2a 3e
       -0.21553114 -1.915315 -0.7272576 0.16664056
0002c0 6a 24 90 be 20 a5 fc be 8d a3 e3 bd 22 7f 80 be
       -0.28152782 -0.4934473 -0.11115179 -0.25096995
0002d0 6d 88 58 3e 57 e0 f9 3e dd bf 82 3c c6 f1 d4 3e
       0.21145792 0.4880397 0.015960628 0.41590708
0002e0 37 55 f3 3e 72 a1 d5 be ba c2 4a 3e 94 c0 09 3f
       0.4752595 -0.41724735 0.19800845 0.53809476
0002f0 b6 f4 d5 be c6 6f cf 3e a8 62 c0 be 83 dc 84 3e
       -0.41788262 0.40514964 -0.3757527 0.25949487
000300 96 da 77 40 c5 de db 3f a7 30 06 3e 12 1c 84 be
       3.8727164 1.7177359 0.13104497 -0.25802666
000310 7c a1 38 be cf f5 d6 3e e9 cd 1f c0 21 c5 1e be
       -0.18030351 0.41984412 -2.4969428 -0.15504886
000320 1b 5f cc bf 23 cf 08 c0 65 b8 41 bf b0 a4 e3 be
       -1.5966524 -2.1376426 -0.7567199 -0.44461584
000330 99 07 c6 be 44 b9 90 bf 51 2e 1e c0 b6 e1 a9 3e
       -0.38677672 -1.1306539 -2.471577 0.33180016
000340 70 b2 08 bf 1f aa dd 3e 71 d8 50 3f 6d e5 f1 be
       -0.53397274 0.43293855 0.81580263 -0.4724535
000350 b0 95 dd 3f 8c c2 02 3d 49 70 14 3f 2d 15 42 bc
       1.7311306 0.031923816 0.57983834 -0.011845869
000360 0b 63 4e 3f 05 7f e3 3f 47 9a a6 3e 0d 1d 49 be
       0.8061988 1.7773138 0.3253958 -0.19639988
000370 ce 64 97 c0 1a 76 0f be 69 c4 ce bf dd 4d 2b bf
       -4.7310553 -0.14009896 -1.615369 -0.66915685
000380 86 3c bd bd a6 cc f1 be cc 37 10 3f a9 ba 1b 3f
       -0.092400596 -0.47226447 0.5633514 0.60831696
000390 4b d4 1e bf 42 a1 20 3f b0 c3 01 3f ea ec 48 40
       -0.62042683 0.6274606 0.5068922 3.13946
0003a0 91 d3 5d be 7d 1a 0c bf ab 23 d9 3d 7d c0 54 3f
       -0.21662737 -0.5472792 0.10602506 0.83106214
0003b0 1c 88 0a bf 3a 85 4b 3f e6 4c 13 3f c9 8c f9 be
       -0.54113936 0.7950016 0.5753921 -0.48740223
0003c0 84 39 98 bf 2a 6e 66 3f 43 08 49 bf 05 8e e3 3d
       -1.1892552 0.90011847 -0.7852823 0.111110725
0003d0 90 8c b7 be b1 aa 19 3f 79 d2 a5 3e fa a5 a9 bf
       -0.35849428 0.6002608 0.3238714 -1.3253777
0003e0 b9 f8 05 3f aa 3b bd be f5 84 39 bf 30 2a 0c 3f
       0.52332646 -0.36959583 -0.724685 0.54751873
0003f0 69 93 4c 3f 5a ce 26 3f ec 4c 72 bf f2 74 00 40
       0.7991243 0.6515862 -0.94648623 2.0071378

encoder.lstm.weight_ih_l1 f4 [256, 64]
000000 13 ad 89 3e f2 6a 7b 3e 2b 94 2d bf e2 5f 11 bc
       0.26889858 0.24552515 -0.6780421 -0.008872958
000010 a2 3e 3c bf f0 2b 0a 40 84 42 03 c0 e3 17 87 bd
       -0.7353307 2.1589317 -2.0509348 -0.06596353
000020 61 5a e4 3e cb e4 e6 be 5a a0 fa 3d b5 0d ca 3e
       0.44600204 -0.4509643 0.12237616 0.39463583
000030 18 df 00 3f 00 ba 82 bf ae 49 c5 be 54 7a 1e 3d
       0.50340414 -1.0213013 -0.38532776 0.03869088
000040 d9 aa 2e bf ad 5a 9a be 60 b0 e8 3d 19 5b 0a 3f
       -0.6822944 -0.30147305 0.11361766 0.54045254
000050 32 66 15 bf 67 69 9d 3f c6 92 72 bf 21 5b 71 3f
       -0.5835906 1.2297791 -0.9475521 0.94279677
000060 0d a7 67 40 3e fc c4 3e 81 06 ae be ec 0f 7d 3f
       3.619571 0.38473696 -0.33989337 0.9885242
000070 c6 8c ca 3e 2c da 2a 3e b3 d7 4a 3f 43 7a a3 bf
       0.39560527 0.16684788 0.7923538 -1.2771686
000080 0c d0 20 3f 39 da f9 3d d2 f8 81 3e 6a eb 07 40
       0.62817454 0.12199826 0.25385147 2.1237435
000090 d0 c6 1c bf 46 c6 d8 3d eb 83 59 c0 30 02 88 3e
       -0.61240864 0.10584693 -3.3986766 0.2656417
0000a0 df 6c cb bc f1 cd 53 3e 94 48 ed 3d 12 9d a9 bf
       -0.024832187 0.20684029 0.11586109 -1.3251059
0000b0 50 9a 0d bc 69 09 7d 3d ec 6b 3b 3f 48 90 ce 3e
       -0.008642748 0.061776552 0.7321155 0.40344453
0000c0 40 57 4e be 5c 11 82 c0 d6 7f 03 40 3a b3 db be
       -0.2015047 -4.064619 2.0546775 -0.42910177
0000d0 e2 e7 e8 be 86 d6 20 be 67 f9 16 3f 49 58 a9 3e
       -0.45489413 -0.15706834 0.5897431 0.3307517
0000e0 11 69 3c bf 15 96 56 be 66 10 88 3e 24 2b 3b 3f
       -0.7359782 -0.20955689 0.2657501 0.731127
0000f0 c3 05 48 bf 3f f1 d4 3f 1c 0d 69 bf 2d 69 0c 3f
       -0.7813379 1.6636122 -0.9103563 0.54847986
000100 c2 09 89 3f 29 05 9e 3f 08 ed 7d 3f 10 e9 ad bf
       1.0706103 1.2345325 0.99189806 -1.358675
000110 42 be 17 3f 0e c5 cf 3f b8 de f9 bc c7 3e 2d 3d
       0.59274685 1.6232011 -0.030501708 0.042296197
000120 dd 09 a7 3f 43 3f fa bf cb 70 27 bf 73 e3 2a 3e
       1.3049885 -1.9550556 -0.65406483 0.16688327
000130 c5 99 32 bf 0b 97 7c be 20 d5 d7 3d 51 12 a5 bf
       -0.69765884 -0.24666993 0.10538697 -1.2896215
000140 82 ba b4 be 68 e1 ca 3f f6 91 03 be f8 8b 24 3f
       -0.35298544 1.5850039 -0.12848648 0.64276075
000150 dc 53 8d bf bc 32 e4 bf bf 7e 0f 40 67 43 1b bf
       -1.1041217 -1.7827983 2.242111 -0.6064972
000160 4e b7 4e 40 1e 65 37 c0 59 fb fa 3e 3e a3 f8 3e
       3.229938 -2.8655467 0.49019888 0.48562044
000170 73 79 98 be f4 21 a1 3d cb d8 26 3e 52 29 75 bf
       -0.29780158 0.07867804 0.16293637 -0.95766175
000180 8b c0 15 3e 5b 06 bb 3d ca 1a 00 40 ee d4 4a 3f
       0.1462423 0.091320716 2.001635 0.79231155
000190 54 58 27 3e ce 67 80 be dd 24 39 c0 d5 a3 b4 bf
       0.16342288 -0.25079197 -2.892875 -1.4112498
0001a0 09 b5 08 3e 63 3c 22 3e b2 ce 99 3d 96 c2 81 c0
       0.1335031 0.15843348 0.07510127 -4.055003
0001b0 d3 11 fa 3e cf 63 04 c0 84 50 02 3f dd aa 89 bf
       0.48841724 -2.0685918 0.5090411 -1.0755268
0001c0 57 2d a3 3e e1 b4 87 bf 1e 99 5f bf 07 8b de 3d
       0.3187053 -1.0602075 -0.87343013 0.10866361
0001d0 cf ff c2 bd a3 7a 54 3e 0e 1a 2a bf 4a 30 a6 3f
       -0.09521448 0.20749907 -0.66446006 1.2983487
0001e0 db 36 7a 40 7e 6c 21 3e 5b ad 7a be 96 a4 41 bd
       3.909598 0.15764043 -0.24480192 -0.047276102
0001f0 e4 38 38 bf 11 cf bb 3f 27 4f d2 be 9c 0a 84 3f
       -0.7196181 1.4672567 -0.41076013 1.0315738
000200 c2 e2 d1 bf 8d de 43 c0 34 a2 5a c0 f0 28 17 3f
       -1.6397326 -3.0604584 -3.41615 0.5904684
000210 51 c0 e1 bf e4 b1 49 c0 04 ac 6f be b4 77 2d be
       -1.7636815 -3.1514826 -0.23405463 -0.16940194
000220 b5 aa 83 3f 60 38 aa 3d b7 6b 94 3e d5 f3 56 3e
       1.0286471 0.08311534 0.2898843 0.20991452
000230 2f 65 de 3e b2 89 1e bf c0 27 7f be f8 a5 34 3d
       0.43436572 -0.61928856 -0.24917507 0.044103593
000240 97 64 2e be 32 e1 96 bf c1 47 1d be b3 6a 9d 3e
       -0.1703056 -1.1787474 -0.15359403 0.30745468
000250 89 5e 30 3f fa 85 95 bf 9b 32 b5 3f d3 88 21 3f
       0.6889425 -1.1681511 1.4156069 0.630994
000260 77 95 59 c0 bf 39 4f 3f fb a2 6e bf fd b9 8f 3f
       -3.3997476 0.8094749 -0.9321744 1.1228634
000270 45 3a 8f 3e 8d 5e 59 bd ad bd dc 3e e9 33 07 bf
       0.27974144 -0.053068686 0.4311346 -0.52813584
000280 51 ac f4 bb f1 98 13 be 7e c2 cc be a0 9b 7c 3d
       -0.007466831 -0.14413811 -0.39992136 0.061671853
000290 56 c3 b3 be 2f 6c 91 3d 52 18 cf 3e fc 70 53 3e
       -0.35109967 0.071007125 0.40448242 0.20648569
0002a0 7f 8e 36 be af 48 ae 3d f0 06 8d 3d af c5 e7 bf
       -0.17827795 0.08509957 0.06886089 -1.8107203
0002b0 6a f0 33 bf d2 e7 02 be e2 0f 8f 3f f1 05 0b 3e
       -0.7028872 -0.12783745 1.1176722 0.13576485
0002c0 0b a1 d7 be b6 62 8c be 32 69 95 be ee 8b 19 be
       -0.42115054 -0.2741906 -0.2918182 -0.14994785
0002d0 65 05 ac 3e 06 aa 4a be 5b ff b8 3e 15 a9 5a 3e
       0.33597866 -0.19791421 0.3613232 0.21353562
0002e0 7e 40 90 c0 9a 04 a7 be c6 57 22 3d 4f 22 d4 bf
       -4.5078726 -0.32620698 0.03963449 -1.657297
0002f0 21 47 e8 3d c8 47 1b c0 79 3a 06 bf 3e c5 82 bf
       0.11341692 -2.4262562 -0.5243297 -1.0216444
000300 54 c9 00 40 29 85 cd 3f 88 77 83 3f 15 26 18 be
       2.012288 1.6056262 1.0270853 -0.14858277
000310 7b 3a 56 3f 5b c2 65 3f 6f 5d e9 bf c3 60 20 be
       0.83682984 0.8974969 -1.8231639 -0.15661912
000320 92 ca 13 bf 4d c8 38 c0 a5 53 9d 3d c8 18 1a 3f
       -0.5773097 -2.8872254 0.076819696 0.60194063
000330 fe 28 b8 3d a3 9d 8a bf 7b 61 59 bf 54 39 9a bf
       0.08992194 -1.0829357 -0.8491437 -1.2048745
000340 e0 42 80 be 6c 3d 96 bd e5 8e 56 3f ee c1 84 be
       -0.25051022 -0.07335934 0.8381179 -0.25929207
000350 aa d7 3b 40 8f 91 df 3e f8 f9 c7 3f 6d e1 c5 3e
       2.935038 0.4366574 1.562316 0.3864855
000360 af 2f 6d 3f ef 86 35 c0 a2 de 8b bf 2f 2c 9b 3f
       0.92650884 -2.8363607 -1.0927317 1.2122859
000370 1d b9 89 3f 2c 61 01 3f 85 8f 21 3f af b0 0f bf
       1.0759617 0.505389 0.6310962 -0.5612897
000380 2b 4f 08 3f 92 68 7e 3d f4 c7 0a c0 70 f9 60 3f
       0.532458 0.062111445 -2.1684542 0.8788061
000390 00 c8 eb be e4 bd c4 3e 8b 12 43 3e 13 36 60 bf
       -0.46051025 0.38426125 0.19050042 -0.8758251
0003a0 92 9a 28 3f 12 96 5d 3e 46 e5 0c 3e 27 00 51 c0
       0.65860856 0.21639279 0.13759336 -3.2656343
0003b0 bd 2b 10 be d3 66 b5 3f 7b 7f a9 bf a0 03 89 bd
       -0.14079185 1.4172004 -1.3242029 -0.066901445
0003c0 ca eb e7 bd 15 3f 4a 3f de 5c 03 3e 16 ea c9 be
       -0.1132427 0.79002506 0.12828395 -0.39436406
0003d0 91 bb 2d bf 16 57 ac bf 18 bc 1e 3f 08 70 3f bf
       -0.6786433 -1.3464077 0.6200576 -0.7478032
0003e0 2f c8 2c 3f 2a cc 90 bf 9f d6 b9 3e 55 40 4e 3e
       0.67492956 -1.1312306 0.36296555 0.20141728
0003f0 8e a5 b7 bf 13 2b c7 bf 11 c1 69 bf c8 d6 40 40
       -1.4347398 -1.556002 -0.9131022 3.0131092

encoder.lstm.weight_hh_l1 f4 [256, 64]
000000 14 c4 79 be 31 b5 c2 be 90 12 59 3f ca b1 2b bf
       -0.24391204 -0.38028863 0.8479395 -0.6706816
000010 2e 22 7a 3e eb 21 51 be 3a 21 99 be 87 81 8c 3e
       0.24427101 -0.20423095 -0.29908162 0.27442572
000020 61 e5 20 be ed b9 bd 3f e3 00 9d 3f c0 ad 5a 3e
       -0.15712501 1.4822365 1.2265896 0.21355343
000030 44 a0 2d 40 3c 8c d4 3e 60 b6 3c 3e bf 32 4e bd
       2.7129068 0.4151324 0.18428946 -0.050341364
000040 95 51 cb 3e 05 eb 15 3f fe 2f 71 bf e7 b8 3a 3d
       0.3971068 0.58561736 -0.94213855 0.045586493
000050 d0 6e c9 3f aa aa 4e bf 59 ce 37 40 35 d8 8c bf
       1.5736942 -0.8072916 2.8719695 -1.1003481
000060 8c e0 66 bf 26 dd de bf 8c c5 70 3f bf 0a 3a 3f
       -0.9018638 -1.7411239 0.9405143 0.7267265
000070 cb ec b7 3e a4 8d d6 be 5e b1 03 3f d4 e4 e5 be
       0.35922846 -0.41904938 0.51442516 -0.44901145
000080 93 ee b6 bf c7 8f a4 be 7e 91 25 3f 8d 1c 21 3d
       -1.4291557 -0.32140943 0.6467513 0.03933387
000090 fa 5f 19 3e 41 69 c9 bf 8c f4 85 3f e5 c2 b6 be
       0.14978018 -1.5735246 1.0465255 -0.35695568
0000a0 9a d7 8f bf 7a cb f2 bf 68 7b 95 be ad 28 16 3e
       -1.1237671 -1.8968346 -0.29195714 0.14663954
0000b0 4d 99 1e 3d cc 11 29 3f 54 49 14 3f 4f e3 f2 3f
       0.038720418 0.6604278 0.5792439 1.8975619
0000c0 9f 14 26 bf 7b 08 31 bf 18 f8 51 3f be 0b 63 3e
       -0.64875215 -0.69153565 0.82019186 0.22172448
0000d0 89 21 82 bf 58 3a 90 bf 7d d6 0e 3f c5 62 1e 3f
       -1.0166484 -1.1267805 0.55796033 0.6186946
0000e0 a1 2f 41 bf 25 34 1e be a7 c9 96 bf 16 f4 1b 3f
       -0.754633 -0.15449579 -1.178029 0.6091932
0000f0 83 b2 52 3d a6 89 48 bf 32 df 80 3f e9 e0 1e 3e
       0.051439773 -0.78335035 1.0068114 0.15515484
000100 03 84 bc bf 91 ff e2 3e 1a db d1 bf aa c5 d6 3f
       -1.4727787 0.44335607 -1.639499 1.6779072
000110 a9 1a c4 3f e4 7c 82 3e 0a 99 05 be 04 db 3e bf
       1.5320636 0.2548591 -0.13046661 -0.7455294
000120 3c eb aa 3e 7c 0c a2 40 31 0e 0a 3f 2b f7 16 be
       0.33382595 5.064024 0.53927904 -0.14742725
000130 81 93 c0 be fd c2 78 be e6 ed 33 c0 d5 e9 3b 3f
       -0.37612537 -0.24293132 -2.8113952 0.73403674
000140 46 de 5d bf e3 0f c7 bf 97 75 60 c0 56 2d 03 3e
       -0.8666729 -1.5551723 -3.507177 0.12810263
000150 48 22 28 40 3b d7 e2 3d 2e 13 75 3d 00 08 0a c0
       2.6270924 0.11076208 0.059832744 -2.1567383
000160 60 59 25 40 5b 1f 9d bf 0b 34 ee bf e7 95 a7 3f
       2.58358 -1.2275194 -1.8609632 1.3092622
000170 58 dc c6 3f d6 0e 00 3f b8 e6 b9 bd df 29 6e be
       1.5535994 0.5002264 -0.09077209 -0.2325816
000180 fd b7 13 c0 db f8 06 40 96 b9 54 3f 27 2a 28 bf
       -2.3081048 2.108939 0.8309568 -0.6568932
000190 83 5c 55 3f 48 55 8f bf 98 76 18 3f b2 09 9a bf
       0.83344287 -1.1197901 0.5955596 -1.2034209
0001a0 71 9a dd bf 1e f4 ce bf 3d 7f de 3e 99 ec 0d bf
       -1.7312757 -1.6168249 0.4345645 -0.55439144
0001b0 cc e9 38 bf cc 0d ed 3f ac a4 16 c0 7f 9a 48 3f
       -0.72231746 1.8519835 -2.3538008 0.7836074
0001c0 09 d1 b9 3f eb 59 c6 be 45 76 4c c0 11 a3 9a be
       1.4516917 -0.38740477 -3.1947186 -0.30202535
0001d0 2d 8b e0 be 22 3e 7a bf aa 08 2a 40 8c 27 86 3f
       -0.43856183 -0.9775106 2.6567788 1.0480819
0001e0 f0 c5 df bf 71 83 7c 3e 39 90 c7 3f 9e 1c 00 40
       -1.7482281 0.24659516 1.5590888 2.0017467
0001f0 ff 28 d0 3f 3f 39 08 c0 b4 05 08 bf d4 f7 04 c0
       1.6262511 -2.128494 -0.531337 -2.0776262
000200 66 4f 01 bf da ff 07 c0 a4 58 95 3f 05 b3 4f be
       -0.5051178 -2.124991 1.1667676 -0.20283134
000210 38 91 0c bf d5 0d 8a bf ed 41 1e 40 cd 64 bc bf
       -0.54909086 -1.0785471 2.4727738 -1.4718262
000220 55 3f 11 3f 73 7f c9 bd fb e9 a5 bd 4f 12 c6 3e
       0.5673726 -0.09838762 -0.08101269 0.38685843
000230 16 dd e0 3f b1 8f 05 3f bb 96 f6 3f 60 f3 22 bf
       1.756747 0.5217238 1.9264749 -0.6365261
000240 5a af 14 40 a7 46 bc 3e 70 5c 82 bf 5e 3d ad be
       2.3232026 0.36772653 -1.018446 -0.33835882
000250 38 49 7f 3f 32 7a 84 3f fb e0 ae 3f 13 f6 fd bf
       0.997211 1.0349791 1.3662409 -1.9840721
000260 ef 9d 4b be e2 95 01 c0 6d 7a 04 c0 34 69 6f 3f
       -0.19884466 -2.0247731 -2.0699723 0.935199
000270 0e cc 81 3f ab e7 03 bf ce bf b9 3d a3 7c 9c 3e
       1.0140398 -0.5152537 0.09069787 0.3056384
000280 25 ab 82 be 11 8e a7 bf d1 5c 0b c0 99 45 59 bf
       -0.25521198 -1.309023 -2.17754 -0.8487182
000290 fe 32 c7 3f 6f 3a 6f 3f 1b 6a 11 40 15 64 78 bf
       1.5562437 0.9344854 2.2721012 -0.97027713
0002a0 b1 90 00 bf 05 f8 cf be f5 3f 90 bf 31 4d 62 3f
       -0.5022078 -0.4061891 -1.1269518 0.88399035
0002b0 c2 4e 18 3f bf 92 03 3f 52 4d 69 bf c2 30 28 3f
       0.59495175 0.5139579 -0.91133606 0.656994
0002c0 8e 49 81 3e 43 b7 57 bf 30 1d 4c bf 07 84 96 bf
       0.2525143 -0.8426401 -0.79732037 -1.1759042
0002d0 69 7c ef bc 34 63 2f be b4 a5 31 bf b0 b8 e6 3d
       -0.029234128 -0.17127687 -0.6939347 0.11265695
0002e0 aa 63 81 bd d9 28 cf 3d cc 9d ee 3e 3e bc de 3f
       -0.063178375 0.10115213 0.46604764 1.7401197
0002f0 a8 61 06 3f 6e 67 13 bf 6f bb c8 be da 75 85 3f
       0.5249276 -0.57579696 -0.392055 1.042659
000300 c6 d6 18 bf 73 72 91 be 65 7a 93 bf 52 c5 3e bf
       -0.5970272 -0.2840763 -1.1521727 -0.74519837
000310 d1 a4 74 3f fe ba 5b 3f 45 c0 c6 3f 90 14 47 3f
       0.9556399 0.858322 1.5527426 0.7776575
000320 bb da d8 bf 77 06 b1 be 60 d1 ac 3f 7e 68 38 bc
       -1.6941751 -0.34575245 1.3501396 -0.011255382
000330 f9 82 5a c0 93 3b be 3e c9 cc 1e 3f f4 8a da be
       -3.414244 0.37154827 0.6203123 -0.42684138
000340 60 6e b8 3f e3 f4 a5 be 09 fe 6a 3e 47 02 3c 3e
       1.4408684 -0.32413396 0.22948469 0.18360244
000350 cb 7e a8 be 77 83 eb bf a2 c1 b1 3d 20 df 5b 3f
       -0.32909235 -1.8399495 0.08679511 0.85887337
000360 21 0e 3b c0 5d b2 b8 3f 12 e7 ca 3f fa de 24 40
       -2.9227374 1.4429432 1.5851767 2.5761094
000370 26 47 3c 40 3a 71 88 3e 64 c9 0a 40 88 8b 2d bf
       2.9418426 0.26648885 2.168542 -0.6779103
000380 1e 5b 22 3e a3 11 0a 40 bb be aa be 24 d3 38 bf
       0.15855071 2.1573265 -0.3334864 -0.72197175
000390 24 89 3e 40 8e 09 91 be ab ad 21 40 3f 59 e5 3d
       2.9771204 -0.28327602 2.5262249 0.11198663
0003a0 74 b6 84 3f cf d0 c7 bf 39 34 bc 3c 48 5f df bf
       1.036818 -1.5610598 0.02297412 -1.7450953
0003b0 e1 86 82 bf d6 d9 90 be 70 bc 84 bf 1f f9 bf bc
       -1.0197412 -0.28291196 -1.0370007 -0.02343422
0003c0 1f 85 f9 be d7 45 1a be f0 6c 8a 3f c8 16 b3 bf
       -0.48734376 -0.15065704 1.0814495 -1.3991327
0003d0 6e 94 c8 3e bb 1c 77 3f 9a 1a a1 bd 34 b5 e2 be
       0.39175743 0.96528214 -0.07866402 -0.44278872
0003e0 96 4d 09 be 20 52 51 3f b5 a9 b3 3f 9f f8 53 c0
       -0.13408503 0.8176594 1.4036165 -3.3120496
0003f0 8e c0 26 bf 5b a3 3b be 1e ff 9d 3f d1 21 1b 40
       -0.65137565 -0.18324034 1.234348 2.423939

encoder.lstm.bias_ih_l1 f4 [256]
000000 bf 52 a7 3f f2 fd de 3f c3 f1 5a be 20 61 a2 3e
       1.3072127 1.7421248 -0.21381287 0.31714725
000010 6f 74 d6 bf 52 51 b2 3f a0 20 8c c0 10 90 55 bf
       -1.6754283 1.3931067 -4.3789825 -0.83422947
000020 8f 5d 06 40 39 33 a8 3f 27 89 ed bf 3f a6 79 bf
       2.0994604 1.3140632 -1.855748 -0.97519296
000030 b5 84 62 40 97 a1 10 c0 3b 45 9c bf 6e 25 bf bf
       3.5393498 -2.2598627 -1.2208627 -1.4933298
000040 ad 0d 91 bf e8 bf 76 3f b1 79 99 3f 9b 6d 32 40
       -1.1332299 0.96386576 1.1990262 2.7879398
000050 8b 56 0f bf 61 85 b7 bf d1 3c f0 bf 98 3a ab 3f
       -0.5599143 -1.4337579 -1.876856 1.3377256
000060 28 d0 e0 bf b0 05 fe 3f 3e 17 4f 3f 21 ad 12 c0
       -1.7563524 1.9845486 0.8089484 -2.291817
000070 26 01 57 40 81 4a fc bf 72 fe ae 3f 51 16 0e c0
       3.359445 -1.9710237 1.36714 -2.220112
000080 34 0d 14 40 ed 93 4b 3a e2 4d 24 40 f5 77 e1 bf
       2.3133059 0.0007765878 2.5672536 -1.7614733
000090 9a 17 85 3f 94 45 11 bf da f2 05 40 d1 53 f5 bf
       1.0397828 -0.5674679 2.0929475 -1.9166204
0000a0 fd d4 81 3f 99 a3 3a 40 fa a9 c4 bf a0 83 2a bf
       1.0143124 2.9162352 -1.5364373 -0.66607094
0000b0 51 36 8b bf b5 ce 51 c0 b3 cc fe 3f c2 49 cd bd
       -1.0875951 -3.2782414 1.9906219 -0.10023834
0000c0 ad 93 5f 3f a0 6e 81 bf 32 f1 02 3f 07 0b 12 c0
       0.8733471 -1.0111885 0.51149285 -2.281923
0000d0 84 16 10 bf 69 b9 a8 3f 73 e2 0b 3f 66 fc f8 3f
       -0.56284356 1.3181583 0.5464241 1.9452026
0000e0 ed 1c 96 3f 4e f3 bb bf 65 f9 b7 bf 9d 27 29 bf
       1.1727577 -1.4683626 -1.4372984 -0.6607607
0000f0 d6 f6 02 c0 31 03 e9 3f 04 f3 03 40 da 7b 84 bf
       -2.0463157 1.8204099 2.0617075 -1.0350296
000100 65 64 b6 3f 5c 6d b9 3f 9f 7a b4 3e 41 cb 1c c0
       1.4249388 1.4486499 0.35249802 -2.4499056
000110 6f 8f eb be 7c 68 da 3f ae ce f3 3f 80 de bd bf
       -0.4600787 1.7063136 1.9047449 -1.4833527
000120 fd 69 57 3f 0e 9a f7 be 48 35 9d 3e b1 50 46 be
       0.841461 -0.48359722 0.30704713 -0.19366719
000130 eb 6b 16 bf ae 43 29 be 46 96 6f bf 0e 32 19 3f
       -0.5875842 -0.16529724 -0.93588674 0.59842
000140 f8 e2 0f 3f fb c2 e3 3f 35 de c4 3f 41 65 f2 bf
       0.562057 1.7793878 1.5380312 -1.893715
000150 4c 9c 86 40 fe db 57 3f 9d 9e af 3f 62 c3 13 3f
       4.206579 0.84320056 1.372028 0.57720006
000160 c8 10 46 3f 19 06 c9 3f 8f ca 0f c0 70 21 80 be
       0.77369356 1.5704986 -2.2467382 -0.2502551
000170 13 a6 a7 bf 54 ee 69 3f 1a da 7c bf 27 b8 31 3f
       -1.3097557 0.91379285 -0.98770297 0.6942162
000180 5f 36 d9 bf 4f cf 5d 3f 21 97 96 bd b8 db e8 bf
       -1.6969718 0.8664445 -0.07353044 -1.8192053
000190 da 65 31 40 dd 9d 29 bf 36 e3 8b bf 97 53 67 be
       2.7718415 -0.66256505 -1.0928714 -0.2259048
0001a0 14 80 49 40 16 bc d9 bf c7 34 dd bc aa f3 a2 bf
       3.1484423 -1.7010524 -0.027002705 -1.273061
0001b0 fa 9c d2 be b9 2b 00 be 8d be 97 3f ad 9d f3 3e
       -0.4113539 -0.12516679 1.1855026 0.47581235
0001c0 c9 ea ac bf c9 3b 82 3f 20 74 2a 40 75 94 a1 3f
       -1.3509151 1.0174495 2.6633377 1.262343
0001d0 9a b6 46 bf d3 44 d2 3f 59 fc 00 40 59 27 9e 3f
       -0.7762238 1.6427253 2.015402 1.2355758
0001e0 7c 9f e1 3f 52 ce 23 3e bf 6b e5 be 17 1c 9d 3f
       1.7626796 0.15996674 -0.44808766 1.2274197
0001f0 8a 87 a1 be 7d b3 61 be 7e 48 d2 3f 52 26 5b 3e
       -0.3154872 -0.22041126 1.6428373 0.21401337
000200 bf 6a b4 3e 65 96 6f 3f cd 9e 46 3e a6 40 a5 3f
       0.3523769 0.9358886 0.19396515 1.2910354
000210 bf 2e a7 3f f2 90 96 3e 62 d5 4f bf 85 af a2 3f
       1.3061141 0.2940746 -0.8118497 1.2709814
000220 4c 38 88 bf be 64 28 3d e2 df 3b 3f a3 9f 1f 40
       -1.064218 0.0411117 0.73388493 2.4941185
000230 0f 03 58 c0 1b 18 dd 3e 59 5e 9d 3e 06 4c 0f bf
       -3.3751867 0.43182454 0.30736044 -0.5597538
000240 61 5d ae be 82 41 5e be 4a 6d 0b c0 c6 34 d8 3f
       -0.34055617 -0.21704677 -2.1785455 1.6891105
000250 93 bc 9c 3e 44 03 2d c0 40 e5 87 bf a8 2e 35 3f
       0.3061262 -2.7033243 -1.0616837 0.70774317
000260 6f 3a 88 3f 71 76 c0 3f 6e 50 1a 40 5f 6c bc 3e
       1.0642833 1.5036145 2.411159 0.3680143
000270 63 30 11 40 29 7f d4 3d 50 d2 7a 3f 50 9d 0b c0
       2.2685783 0.103758164 0.9797716 -2.1814766
000280 bd d1 03 40 82 99 e6 3f ff aa 6c 40 9c 14 9d 3f
       2.0596764 1.8015597 3.6979368 1.2271914
000290 09 ef da bf fc 27 33 bc 95 ef cf bf 26 8b 53 3f
       -1.7104198 -0.010934826 -1.624499 0.826342
0002a0 c3 fd 35 c0 4e d3 86 be 20 03 18 bf c3 86 64 bf
       -2.8436134 -0.26333088 -0.5937977 -0.8926813
0002b0 c2 68 db 3d 13 05 07 c0 fc 90 83 bf 6f 4a 7f 3e
       0.1071334 -2.1096847 -1.0278621 0.24930738
0002c0 a1 dc cc 3f 3c 5c c2 3f 3f fc 14 40 df 95 bf bf
       1.6004831 1.5184398 2.3278959 -1.4967612
0002d0 5d 81 ae be 2f 3c cb 3e 8b a0 cb 3f e9 a3 bb 3e
       -0.3408307 0.39694354 1.5908369 0.3664849
0002e0 4e ea ae 3e 0f 39 da bf 20 ac dc 3f 75 0a 29 3f
       0.34163135 -1.7048663 1.7240028 0.6603158
0002f0 74 e3 b2 bd 2f 83 9c 3f 64 cc 07 40 ee 71 37 3f
       -0.087347895 1.2227534 2.12185 0.7165822
000300 14 c1 f8 be 00 07 58 bf 1d 7f da bf 23 35 55 3f
       -0.48584807 -0.8438568 -1.7070042 0.83284205
000310 d7 c5 f8 3f 9d 95 8e bf 3b b1 33 bf 95 bc 48 c0
       1.9435376 -1.1139408 -0.7019231 -3.1365101
000320 d6 02 88 bf 49 c7 cf 3e 8d 63 d7 bf af e1 a9 be
       -1.0625865 0.4058173 -1.6827255 -0.33179995
000330 d0 86 c6 bf be d1 92 be ff 1a 27 3f 67 a3 28 c0
       -1.5509892 -0.28675646 0.6527557 -2.6349733
000340 2d 4f b8 bf 66 d7 ba 3f e9 a5 39 40 dc 38 04 40
       -1.4399163 1.4596984 2.9007514 2.0659704
000350 f3 2a b7 3f 91 1d f1 be f7 20 94 bf 75 93 eb bf
       1.4309982 -0.4709287 -1.157256 -1.8404375
000360 17 9a be 3f ac 12 14 3e 29 4e b9 bf 36 30 8e bf
       1.4890774 0.14460248 -1.4476978 -1.1108463
000370 6d 11 67 40 98 e6 8c bf 64 ff 09 bd 73 7d 94 bf
       3.6104386 -1.1007872 -0.033690825 -1.1600784
000380 b4 75 c5 bf e9 a4 14 c0 b7 f2 c5 3e 6f 7e f2 bf
       -1.5426545 -2.3225653 0.3866174 -1.8944834
000390 9e 6e a0 3e 7c e6 8b bf 43 48 94 bf 01 3b 86 3f
       0.31334394 -1.0929713 -1.1584553 1.0486757
0003a0 b0 c7 8c 40 59 47 9a bf 4b 0f b6 be a1 f4 b2 be
       4.399376 -1.2053024 -0.35558543 -0.34952262
0003b0 b3 b4 0b 40 b6 de c4 3c 97 ab 0c 40 a7 e0 ff bf
       2.182904 0.024031978 2.197973 -1.9990433
0003c0 68 34 06 bd 99 ed 2d 40 a3 29 8b bf 00 75 99 bf
       -0.032764822 2.7176268 -1.0872082 -1.198883
0003d0 70 12 2d bf 30 bf d5 bf f3 04 04 c0 b9 27 c1 bf
       -0.6760626 -1.6698971 -2.062802 -1.5090247
0003e0 7c 5f da bf 86 21 1c 40 1f ac 28 40 81 b6 de be
       -1.706039 2.439546 2.6355054 -0.43498614
0003f0 78 d9 af 3f 22 00 d1 bf 96 61 22 3f d9 9e 6a 3f
       1.3738241 -1.6328166 0.63430154 0.9164863
